checkpoint.pth (torch, 47309 bytes, 6 tensors)

fc1.weight f4 [64, 37]
0	0x3d9b33c9	0.075782366
1	0xbef459b1	-0.4772468
2	0x3d6d04d5	0.057865936
3	0xbd4e6194	-0.050386027
4	0xbe567ada	-0.20945302
5	0xbd823b43	-0.063589595
6	0xbd4194ac	-0.047260925
7	0xbe064466	-0.1311203
8	0xbea3e08a	-0.32007247
9	0x3e617880	0.22018623
10	0x3e73182f	0.23739694
11	0xbea08456	-0.31350964
12	0xbcfaa0b5	-0.03059421
13	0xbd796d26	-0.060895108
14	0xbd993627	-0.07481032
15	0xbe4a2076	-0.19738945
16	0x3e1272cb	0.14301603
17	0xbee17d97	-0.4404113
18	0xbe8b6de7	-0.27232286
19	0x3dbe0a2f	0.09279286
20	0x3db8397d	0.0899534
21	0xbdef5961	-0.116869695
22	0xbdff7ff1	-0.12475575
23	0xbecc8107	-0.3994219
24	0x3e011c61	0.12608482
25	0xbdfff8a6	-0.12498598
26	0xbe21974a	-0.15780368
27	0xbe93eddb	-0.28892407
28	0xbf0d0ffd	-0.5510252
29	0xbe5ba474	-0.21449453
30	0xbe088a5a	-0.13334027
31	0xbc57309e	-0.01313415
32	0xbe60dd2e	-0.21959373
33	0xbca06d8a	-0.019583482
34	0x3d18436d	0.037173677
35	0x3d689e63	0.056791674
36	0x3d20ec29	0.03928772
37	0xbe14c2ad	-0.14527388
38	0x3da463b1	0.08026827
39	0x3e13d446	0.14436445
40	0xbe05808b	-0.13037317
41	0x3dcf271f	0.10114884
42	0xbdeb7a7e	-0.11497973
43	0xbd785797	-0.060630407
44	0xbd57cef2	-0.052687593
45	0x3e5cf582	0.21578029
46	0xbf2688e3	-0.6505262
47	0x3c2b4bda	0.010455096
48	0xbd286c2e	-0.041118793
49	0xbd99eb49	-0.0751558
50	0x3e4f36a9	0.20235695
51	0xbc2f0584	-0.010682467
52	0xbe847fdb	-0.25878796
53	0x3c45b445	0.012066905
54	0x3e2a27c8	0.16616738
55	0x3b88b15c	0.0041715335
56	0xbdbafe10	-0.0913049
57	0x3d5f0ef1	0.05445761
58	0xbc4c897b	-0.01248395
59	0xbc8ff41e	-0.017572459
60	0x3d80181f	0.06254601
61	0x3e956c78	0.29184318
62	0x3e512a68	0.20426333
63	0xbdf5a4e6	-0.119943425
64	0x3dab27cf	0.08357202
65	0xbdeac97b	-0.114642106
66	0xbe1993b2	-0.14997748
67	0xbc1809dc	-0.009279694
68	0x3ea455c4	0.32096684
69	0xbe814755	-0.25249735
70	0xbe84d004	-0.25939953
71	0xbdf93528	-0.12168342
72	0xbd478e91	-0.048719946
73	0xbd4e9221	-0.050432328
74	0xbf08d0bf	-0.5344352
75	0x3d96da98	0.07365912
76	0x3d479e6a	0.04873506
77	0x3ddbcef6	0.10732834
78	0x3d3173c4	0.043323293
79	0x3da58b9c	0.08083269
80	0xbf094537	-0.5362124
81	0xbd8426c5	-0.06452707
82	0xbc9489f8	-0.018132195
83	0xbe762d59	-0.24040736
84	0xbe9c3ea6	-0.30516547
85	0xbc9ed35c	-0.019387893
86	0x3dbce4d8	0.09223336
87	0xbf11708d	-0.56812364
88	0xbda9d867	-0.082932286
89	0xbd109578	-0.035298795
90	0xbe019c9d	-0.126574
91	0x3d995a64	0.07487944
92	0x3ccce0c2	0.025009517
93	0xbedea0a7	-0.43481943
94	0x3d3e33a9	0.046435986
95	0x3d65b7b9	0.056083415
96	0xbe8a49ac	-0.27009332
97	0xbf812b90	-1.0091419
98	0xbeebad59	-0.4603069
99	0x3bff3e88	0.0077894367
100	0xbed22515	-0.41043916
101	0x3e99fa34	0.30073702
102	0xbf0e36c0	-0.5555229
103	0xbe3d072f	-0.18459772
104	0xbf45d788	-0.77282
105	0xbef2b268	-0.47401738
106	0x3eb475a5	0.35246006
107	0xbeb0e6fa	-0.3455122
108	0xbe786fbe	-0.24261376
109	0xbe1799f6	-0.14804825
110	0xbaff0ec2	-0.0019459354
111	0x3e8c4d40	0.27402687
112	0x3dadc7b9	0.0848536
113	0x3d70d538	0.05879709
114	0xbdf8ab5d	-0.1214206
115	0xbed48a94	-0.41511977
116	0xbd20c09f	-0.039246198
117	0xbdbc2034	-0.0918583
118	0x3d85667f	0.0651369
119	0x3e456666	0.19277343
120	0x3acb3ec2	0.0015506374
121	0x3ce41bf7	0.027845366
122	0xbda20cad	-0.07912574
123	0xbd172e89	-0.036909614
124	0x3b9812ca	0.0046409117
125	0xbc95cac5	-0.018285165
126	0x3ea14f18	0.31505656
127	0xbe685bf1	-0.22691323
128	0x3ddcc803	0.10780337
129	0x3e1effed	0.15527315
130	0xbd2cf6d3	-0.042227577
131	0x3de33a2e	0.11095081
132	0x3cb8d153	0.022560751
133	0xbd7feb18	-0.062480062
134	0x3dc5b57d	0.09653757
135	0x3eca7bbd	0.3954753
136	0x3e5eb3aa	0.21748224
137	0x3d5b892d	0.053597618
138	0xbd63a452	-0.05557663
139	0xbd419ffd	-0.047271717
140	0xbea71654	-0.32634223
141	0xbd5c3273	-0.05375905
142	0xbd90847e	-0.07056521
143	0x3d76fccb	0.060299676
144	0xbd771ddc	-0.06033121
145	0x3e75e940	0.24014759
146	0xbe09a99c	-0.13443607
147	0xbcf75c66	-0.030195426
148	0x3d37d2b9	0.044878695
149	0x3d7bd7d3	0.061485123
150	0xbcfd6af9	-0.030934798
151	0xbbc47ddb	-0.0059964485
152	0xbc9aee00	-0.018912315
153	0x3e763e04	0.24047095
154	0x3daad5a8	0.08341533
155	0x3d61d191	0.0551315
156	0xbe596ac5	-0.21232136
157	0xbf0ddaba	-0.55411875
158	0x3e5602fc	0.20899576
159	0xbd17f360	-0.037097335
160	0x3d0767c4	0.033057943
161	0x3d90aa6a	0.07063754
162	0xbdcfca2a	-0.101459816
163	0x3e42b851	0.19015624
164	0x3d65f4ad	0.056141544
165	0xbe3fce91	-0.18731143
166	0x3e5a2ee1	0.21306945
167	0xbd3e457c	-0.046452984
168	0xbe841bcb	-0.25802454
169	0x3de33509	0.110941
170	0xbe054499	-0.13014449
171	0x3c925d14	0.017866649
172	0x3e643079	0.22284116
173	0x3cd2469e	0.025668439
174	0x3dd78535	0.10523454
175	0x3e019ec0	0.12658215
176	0x3e17a7a6	0.14810047
177	0x3e18f14d	0.14935799
178	0x3d2e3b25	0.042536873
179	0xbca12336	-0.01967011
180	0x3dc0801d	0.09399436
181	0x3ce8b5aa	0.028406937
182	0x3d8c1fde	0.06842016
183	0x3d20053f	0.039067503
184	0xbd229f13	-0.039702486
185	0x3e089aa6	0.13340244
186	0x3cfb3f2e	0.030669775
187	0xbe0cf6a0	-0.13765955
188	0xbdd84ae6	-0.10561161
189	0xbe6476e1	-0.22310974
190	0x3db0b528	0.08628303
191	0x3e7afbdd	0.2451014
192	0xbcf1f051	-0.029533537
193	0xbcb5e9be	-0.022206184
194	0xbec20169	-0.378917
195	0x3e6b2f57	0.22967277
196	0x3dcc5014	0.09976211
197	0x3e107b9d	0.14109655
198	0x3cb379eb	0.021908721
199	0xbea1f4bc	-0.3163203
200	0xbcee65e0	-0.029101312
201	0x3dd44279	0.10364241
202	0x3ae17293	0.0017200283
203	0x3d8751c5	0.06607393
204	0x3e78197c	0.24228472
205	0x3caae95c	0.020863228
206	0x3d2aee9e	0.04173147
207	0x3d199292	0.037493296
208	0xbe3e3c55	-0.18577702
209	0xbe02c83d	-0.12771697
210	0xbb9d004a	-0.004791294
211	0xbda0be69	-0.07848818
212	0x3b6c7930	0.0036082976
213	0x3e48f9e1	0.19626571
214	0xbe510174	-0.2041071
215	0x3e11076c	0.14162987
216	0xbe1ff2a4	-0.15619904
217	0x3e00b8bc	0.1257047
218	0x3e0263cd	0.12733383
219	0x3e0526dd	0.13003106
220	0x3a04fc2c	0.0005072977
221	0x3cb2c878	0.021824107
222	0xbe072130	-0.13196254
223	0xbd1b9ad7	-0.037989464
224	0xbd6e178b	-0.05812792
225	0xbd25bae5	-0.04046144
226	0x3d23985c	0.039940223
227	0x3e0eefec	0.1395871
228	0x3e1b21c2	0.15149596
229	0x3e1f38c4	0.15548998
230	0xbd5e03e3	-0.054202925
231	0xbdb21f11	-0.08697332
232	0x3cf0dfd3	0.029403603
233	0x3cf6f469	0.03014584
234	0x3bbc3871	0.005744033
235	0x3c6907a0	0.014223009
236	0xbb5efb43	-0.0034024275
237	0xbd29be04	-0.04144098
238	0x3ea1d9a4	0.3161136
239	0x3d488992	0.048959322
240	0x3db6f2bd	0.089330174
241	0x3db1c25c	0.08679649
242	0x3d06b1d2	0.032884426
243	0x3dd1f7f3	0.10252371
244	0x3ddba0c4	0.10724023
245	0x3db690c5	0.08914331
246	0x3df25af3	0.118337534
247	0x3eb0e4c2	0.34549528
248	0xbe84706f	-0.2586703
249	0xbe232a3d	-0.15934081
250	0xbeef8926	-0.46784323
251	0xbfeff164	-1.8745542
252	0xbc968219	-0.018372582
253	0x3cbbdcae	0.022932377
254	0xbda603a7	-0.081061654
255	0xbc4a748b	-0.012356888

fc1.bias f4 [64]
0	0xbe1d0856	-0.15335211
1	0xbdf78965	-0.12086753
2	0xbbb30763	-0.005463527
3	0xbdda1a01	-0.10649491
4	0xbdabe3a5	-0.08393029
5	0x3e16e8f0	0.14737296
6	0x3de1b1db	0.11020251
7	0x3d37d190	0.04487759
8	0x3cf9061f	0.030398427
9	0x3ddec9f4	0.10878363
10	0xbb82d7d6	-0.003993015
11	0x3e495868	0.1966263
12	0x3d81c626	0.06336622
13	0xbddb89de	-0.107196555
14	0xbe3891f9	-0.18024434
15	0xbe502403	-0.20326237
16	0xbe1fa820	-0.15591478
17	0x3e756022	0.23962453
18	0xbdda6443	-0.10663655
19	0xbd743d2d	-0.059628654
20	0x3d207ec4	0.039183393
21	0xbd25b325	-0.04045405
22	0x3e3509c7	0.17679511
23	0xbd6b4ebb	-0.05744813
24	0x3c8561f7	0.016282065
25	0x3e6d5b75	0.2317942
26	0xbe019506	-0.12654504
27	0xbd158001	-0.036499027
28	0xbdaf1b3c	-0.085501164
29	0x3df6061b	0.12012883
30	0x3d6ff407	0.058582332
31	0xbd9d3283	-0.0767565
32	0x3afc6b5e	0.0019258072
33	0x3d0d1f76	0.03445383
34	0xbe08a00e	-0.13342306
35	0x3e5eaa8b	0.21744744
36	0xbd0b3c37	-0.033992972
37	0x3d229042	0.039688356
38	0x3e46dbec	0.19419831
39	0xbd8db5d9	-0.0691945
40	0xbd307372	-0.043078847
41	0xbc550cbc	-0.013003524
42	0xbd0da00e	-0.03457647
43	0x3d107654	0.035269096
44	0x3ea93243	0.3304616
45	0xbdef9c42	-0.11699726
46	0x3e3c11fb	0.18366234
47	0x3de2219a	0.11041565
48	0x3ea0cdea	0.314071
49	0x3d920eec	0.07131752
50	0x3e05e976	0.1307734
51	0x3dc37ba5	0.09545068
52	0x3bee2bdf	0.0072684134
53	0xbdf3107d	-0.11868379
54	0x3c05ad98	0.008159064
55	0x3e418692	0.18898991
56	0xbda60edf	-0.08108305
57	0xbdd44457	-0.10364597
58	0xbe2f5bcb	-0.1712486
59	0xbd1ce5d9	-0.038305137
60	0x3d908d88	0.07058245
61	0x3cc53ad2	0.0240759
62	0xbe0dd449	-0.13850512
63	0xbe472449	-0.19447435

fc2.weight f4 [128, 64]
0	0xbde80cba	-0.113305524
1	0x3e16848b	0.14698999
2	0x3d034b3c	0.03205417
3	0x3d8b9503	0.06815531
4	0xbe13806e	-0.14404461
5	0xbe33e0fe	-0.17566296
6	0x3cbc58cd	0.022991562
7	0x3d88edef	0.06686007
8	0xbe3add75	-0.18248542
9	0xbd9c7e4f	-0.07641279
10	0xbe8439ce	-0.2582535
11	0x3d95eaa7	0.07320147
12	0x3e0688e1	0.13138153
13	0x3dc5eafd	0.09663961
14	0x3d382cdd	0.04496466
15	0xbb029b12	-0.0019928855
16	0xbea8940d	-0.32925454
17	0x3d8db5ba	0.06919427
18	0x3e0d354f	0.13789867
19	0xbd0c1be4	-0.034206286
20	0x3e82d622	0.25553995
21	0xbc66c787	-0.014085657
22	0x3d41b3da	0.04729066
23	0xbe97ce56	-0.2964961
24	0x3d0fa39e	0.035068147
25	0x3db279f1	0.08714665
26	0xbe864b2a	-0.2622922
27	0xbdf2539c	-0.118323535
28	0x3c7e4d31	0.015521334
29	0x3ca33ea2	0.019927327
30	0xbe0374b0	-0.12837481
31	0xbc1994a2	-0.009373816
32	0xbecd92a4	-0.4015094
33	0xbdc8b7f8	-0.09800714
34	0x3d1a5527	0.037678864
35	0xbe3b3388	-0.18281376
36	0xbe67c273	-0.2263277
37	0xbe78429a	-0.24244156
38	0x3d2cf247	0.04222324
39	0x3e175193	0.14777212
40	0x3d9ed0b1	0.077546485
41	0xbe04aebe	-0.12957284
42	0xbd31c9fd	-0.04340552
43	0x3d8cd37a	0.068762735
44	0xbcc3d030	-0.023902982
45	0xbd34263a	-0.04398177
46	0xbd6d64f5	-0.05795761
47	0xbe2d4ed6	-0.16924605
48	0xbe0978e5	-0.13425024
49	0xbe2e270f	-0.17007087
50	0xbe58f49e	-0.21187064
51	0x3db4bdf2	0.08825292
52	0xbafc73d4	-0.0019260594
53	0xbcd0196c	-0.025402747
54	0xbe3348d4	-0.1750825
55	0x3d9df69f	0.07713055
56	0xbe636308	-0.22205746
57	0xbd249d83	-0.040189277
58	0xbe434f2f	-0.19073175
59	0xbd497558	-0.049184173
60	0x3e5f4ba6	0.21806201
61	0xbdfea8de	-0.124345526
62	0xbe065be6	-0.13120994
63	0x3ea36dc3	0.3191968
64	0x3e895f68	0.26830602
65	0x3dc07e24	0.093990594
66	0xbde37a21	-0.111072786
67	0x3e563d8d	0.20921917
68	0xbd8dd7c5	-0.069259204
69	0x3cd2616c	0.02568122
70	0x3eda64e1	0.4265509
71	0x3e5556e7	0.20833932
72	0xbdb89483	-0.09012701
73	0x3dbd2c13	0.09236922
74	0xbcf294aa	-0.029611904
75	0x3e272948	0.16324341
76	0x3d9a83ef	0.075446956
77	0x3e1816ea	0.14852491
78	0xbce568f9	-0.028004156
79	0xbe9f6aca	-0.3113616
80	0x3e2fea8b	0.17179315
81	0x3ce29059	0.027656721
82	0x3de568d8	0.11201638
83	0xbdd49ef9	-0.10381884
84	0xbdba96f6	-0.09110825
85	0x3c535ab5	0.012900044
86	0xbcd46e6e	-0.025931563
87	0xbd03a98f	-0.032144126
88	0xbe6ab304	-0.22919852
89	0xbdf6dbc8	-0.12053639
90	0x3dfffc8b	0.124993406
91	0xbcead6da	-0.028666902
92	0xbd1759dd	-0.036950935
93	0xbe1108a2	-0.1416345
94	0xbcce5ed2	-0.025191698
95	0x3e84fa4e	0.25972217
96	0x3e80d681	0.25163653
97	0x3dfd41a5	0.12366036
98	0x3e1df807	0.15426646
99	0xbdd26ecd	-0.1027504
100	0x3df61559	0.120157905
101	0xbc905e9c	-0.017623238
102	0xbd9473ba	-0.072486356
103	0x3d675532	0.056477733
104	0xbd878a63	-0.06618192
105	0x3de12c94	0.10994831
106	0x3e556ee8	0.20843089
107	0xbe1736e3	-0.14767031
108	0xbdb39158	-0.087679565
109	0xbd155b1e	-0.03646385
110	0x3cc8d2db	0.024514606
111	0xbde0a7a9	-0.10969479
112	0xbdd5654c	-0.104197115
113	0xbd8ed594	-0.069743305
114	0x3e41871e	0.188992
115	0xbd4e5bf0	-0.050380647
116	0xbcb8826d	-0.02252313
117	0xbd8e7d87	-0.06957536
118	0xbcbf7b9e	-0.023374375
119	0xbe2c7ae0	-0.16843748
120	0x3daf8a75	0.085713305
121	0xbd754d10	-0.059887946
122	0xbd136f02	-0.035994537
123	0xbbbe7cbc	-0.0058132093
124	0xbb92de10	-0.0044820383
125	0xbe560ea1	-0.20904018
126	0xbf3042fc	-0.6885221
127	0xbe60c597	-0.21950375
128	0x3d81224e	0.06305371
129	0xbe0959ab	-0.13413112
130	0xbd9d84fb	-0.0769138
131	0xbbeee713	-0.00729073
132	0x3c15f881	0.009153486
133	0x3dbd6472	0.09247674
134	0x3d442f70	0.047896802
135	0xbdfdd7b6	-0.12394659
136	0x3d05ab1d	0.03263389
137	0xbb772a0d	-0.0037714273
138	0xbda6930b	-0.08133515
139	0x3dc90f3d	0.098173596
140	0xbdd77424	-0.10520199
141	0xbd9cd464	-0.07657698
142	0xbe24ba15	-0.1608661
143	0x3de3937a	0.11112113
144	0xbbba8f86	-0.005693379
145	0x3e3ddf2a	0.18542162
146	0x3c32998c	0.010900866
147	0x3e0fe43a	0.14051905
148	0x3cbeab5b	0.023275068
149	0x3c5c31a7	0.013439572
150	0x3c8b8044	0.017028935
151	0x3dbf7f84	0.093504936
152	0x3d32ce55	0.043653805
153	0x3d9e69f4	0.07735053
154	0x3db2ce64	0.08730772
155	0x3dad4cba	0.084619
156	0x3df8b46f	0.1214379
157	0x3dec3e5d	0.11535332
158	0x3d901d60	0.07036853
159	0x3dc75bb9	0.097342916
160	0xbdf67076	-0.12033169
161	0xbdde823d	-0.10864685
162	0xbdb0a841	-0.08625842
163	0x3dbaed0c	0.09127244
164	0x3f00f202	0.50369275
165	0xbe2bf7a8	-0.16793692
166	0xbd474044	-0.048645273
167	0x3d00a3e3	0.031406295
168	0xbd81bf33	-0.063352965
169	0xbdd5ed72	-0.1044568
170	0x3d3d02b3	0.046145152
171	0xbdd8eb4f	-0.105917566
172	0x3d1da708	0.03848937
173	0xbd841a3a	-0.06450315
174	0x3dc685db	0.096935
175	0x3d47e32a	0.048800625
176	0x3b197971	0.0023418332
177	0x3ca9f7df	0.020748077
178	0x3b847592	0.004042336
179	0xbdc67dc2	-0.09691955
180	0xbd524362	-0.051333793
181	0x3c520017	0.012817404
182	0xbd0af289	-0.033922706
183	0x3cddad23	0.027060097
184	0xbe0e1aaa	-0.13877359
185	0x3de0a802	0.10969545
186	0x3da8ef8b	0.08248814
187	0x3d0dd73d	0.034629095
188	0xbc0f29bf	-0.00873798
189	0xbdabaadb	-0.083821975
190	0x3e6814ef	0.22664236
191	0x3ee3096b	0.44343123
192	0xbdbbdc83	-0.09172919
193	0xbcc3d038	-0.023902997
194	0x3db894b0	0.09012735
195	0xbd9aeff3	-0.07565298
196	0xbe076984	-0.13223845
197	0xbe2a3b57	-0.16624199
198	0xbeca7099	-0.3953903
199	0xbeac6a5e	-0.33674902
200	0x3d056f66	0.03257694
201	0x3d0e39e9	0.034723196
202	0xbd0fdb69	-0.035121355
203	0xbda3b18d	-0.079928495
204	0xbe35327c	-0.1769504
205	0x3d03f742	0.032218225
206	0x3b085752	0.0020804
207	0x3dc78b82	0.09743406
208	0xbe2b92aa	-0.16755167
209	0x3d4a434c	0.049380586
210	0xbe141f7b	-0.14465134
211	0x3d8fcc28	0.070213616
212	0xbdc5bcc0	-0.09655142
213	0xbdb2c646	-0.08729224
214	0xbd84bc00	-0.06481171
215	0x3d9f37b2	0.07774295
216	0x3ecae1d0	0.39625406
217	0x3d3ca6bc	0.046057448
218	0xbe6a36b3	-0.22872429
219	0x3d9c1668	0.07621461
220	0x3e39f39d	0.18159337
221	0x3d8723f2	0.06598653
222	0xbc27374f	-0.010206058
223	0xbdb656e8	-0.08903295
224	0xbd840d76	-0.0644788
225	0xbb0e8212	-0.0021745008
226	0xbf1bd6c4	-0.6087458
227	0x3e41f8d4	0.18942577
228	0x3d9c8888	0.07643229
229	0xbd9e27b2	-0.07722415
230	0xbd0dda05	-0.034631748
231	0xbd0a9333	-0.033831786
232	0xbd6d28db	-0.05790029
233	0xbe7eba7b	-0.24875824
234	0xbd22705e	-0.039657943
235	0x3c8272e7	0.01592393
236	0x3d736f65	0.059432406
237	0x3c039774	0.008031715
238	0x3e0d0d43	0.1377459
239	0xbdda98da	-0.10673685
240	0x3d706168	0.058686644
241	0xbe26cb62	-0.16288522
242	0x3deed520	0.11661744
243	0xbe3fde92	-0.18737248
244	0x3e81cafc	0.25350177
245	0x3cbcb8c6	0.023037326
246	0xbdc175e2	-0.094463125
247	0x3d054378	0.032535046
248	0xbcde9ecd	-0.027175331
249	0x3d8d9dea	0.06914885
250	0x3e13a4ce	0.14418337
251	0xbbc3d987	-0.005976859
252	0x3afd9933	0.0019348025
253	0x3c731de4	0.014838669
254	0x3e43967b	0.19100372
255	0xbe4d8187	-0.20068942

fc2.bias f4 [128]
0	0xbdc5f547	-0.096659236
1	0x3e2c6f9b	0.16839449
2	0x3e961357	0.2931163
3	0x3e4878a7	0.19577275
4	0xbd78d5f2	-0.06075091
5	0xbdcae8e5	-0.09907702
6	0xbcb8affa	-0.02254485
7	0x3e3d4fa4	0.18487412
8	0xbd345217	-0.0440236
9	0xbde276c0	-0.11057806
10	0x3d411ec0	0.047148466
11	0x3d9170e3	0.071016096
12	0xbd0e6778	-0.034766644
13	0xbdd849ef	-0.10560977
14	0x3d912539	0.07087178
15	0x3eaa306a	0.33240062
16	0x3e942a89	0.28938702
17	0xbc8a1580	-0.016855955
18	0x3ebf7f47	0.37401792
19	0xbe0d177a	-0.13778487
20	0xbdbdcd73	-0.09267702
21	0x3da45d83	0.080256484
22	0xbe0d786c	-0.13815469
23	0xbdb8d738	-0.09025425
24	0x3e089c62	0.13340905
25	0xbd48bad2	-0.04900629
26	0xbd4f1f19	-0.050566766
27	0x3ce4b381	0.027917625
28	0x3e186eb0	0.14885974
29	0xbdc2c475	-0.095101275
30	0xbe1b337f	-0.15156363
31	0x3e0be661	0.13662101
32	0xbd7ba05d	-0.06143223
33	0x3b324cf5	0.0027206514
34	0xbdf07187	-0.117404036
35	0xbc9d62c7	-0.01921214
36	0xbd22d5d5	-0.039754707
37	0x3eac7a53	0.33687076
38	0x3ead1cfd	0.3381118
39	0x3d46f70d	0.04857545
40	0xbd9be018	-0.07611102
41	0xbd944820	-0.07240319
42	0x3dbc5c42	0.09197284
43	0xbdca41d9	-0.09875841
44	0x3eae6f7f	0.3406944
45	0x3be625b1	0.007023536
46	0xbd2e849f	-0.042606946
47	0x3e8723b4	0.26394427
48	0xbe3f4d8f	-0.1868193
49	0x3c594c6f	0.013262852
50	0x3dd98f43	0.10623028
51	0xbe05bd54	-0.13060504
52	0x3e094580	0.13405418
53	0x3e7e54c4	0.24837023
54	0x3e2ae587	0.1668912
55	0x3e41476e	0.18874905
56	0xbdef9ec3	-0.11700203
57	0xbcd841ad	-0.026398504
58	0x3ec35a24	0.3815471
59	0x3e06c183	0.13159756
60	0xbe0d3db0	-0.13793063
61	0xbc990d40	-0.018683076
62	0xbbb91fac	-0.0056495275
63	0x3da39e54	0.07989183
64	0x3e09f79a	0.13473359
65	0x3e8b9b8b	0.27267107
66	0xbd86ec21	-0.06588007
67	0xbd90020a	-0.07031639
68	0xbcf9db0a	-0.030499954
69	0x3e723449	0.23652758
70	0xbd52fa3e	-0.05150818
71	0xbe1cd2c4	-0.15314776
72	0x3dfc6041	0.123230465
73	0x3d40e53b	0.04709361
74	0x3e105854	0.14096195
75	0x3deab850	0.11460936
76	0xbc3bd3cd	-0.011464071
77	0x3d7f1183	0.06227256
78	0x3e2245b0	0.15846896
79	0x3d20aad3	0.03922541
80	0x3e0f089a	0.13968125
81	0x3dc6a6c6	0.09699778
82	0x3c73081c	0.014833476
83	0xbdde05ca	-0.10840948
84	0xbca3a679	-0.019976841
85	0x3ead6ef4	0.33873713
86	0x3e0bf596	0.13667902
87	0x3e189d64	0.1490379
88	0xbd2f5d43	-0.04281355
89	0xbc79ec1a	-0.015254045
90	0xbd018625	-0.03162207
91	0x3e402a8e	0.18766233
92	0x3e14743f	0.1449747
93	0xbd34572e	-0.044028454
94	0x3da541d2	0.08069195
95	0x3e4c7211	0.19965388
96	0x3d1fb5a9	0.038991604
97	0xbdca1123	-0.0986655
98	0x3d50b8ce	0.050957493
99	0x3db84409	0.08997352
100	0x3e5e1386	0.21687135
101	0x3e3a41e0	0.18189192
102	0x3dd2ed7e	0.10299204
103	0x3e2b466d	0.16726084
104	0x3eb7d0ce	0.35901493
105	0x3e91f77e	0.28509134
106	0xbc892a72	-0.016743872
107	0xbd465aa3	-0.04842628
108	0x3c86531f	0.016397057
109	0x3b63ebc8	0.0034777988
110	0x3e717265	0.23578794
111	0xbdd4a094	-0.1038219
112	0x3d464577	0.04840609
113	0x3c45f543	0.012082401
114	0xbe276b57	-0.1634954
115	0xbc8bff7e	-0.017089602
116	0x3ce57ae8	0.028012708
117	0xbdc3a91d	-0.0955374
118	0x3b867901	0.0041037803
119	0x3d9cfc4b	0.076653086
120	0xbb52abd9	-0.0032145886
121	0xbdcbe2fb	-0.099554025
122	0x3e007fb4	0.12548715
123	0x3e070266	0.13184509
124	0x3da0e672	0.07856454
125	0xbda32d29	-0.07967598
126	0xbd0f12f6	-0.034930192
127	0xbe16740a	-0.14692703

fc3.weight f4 [4, 128]
0	0x3c82cb79	0.015966164
1	0x3e8f914d	0.28040543
2	0x3d2cdfb2	0.04220552
3	0x3e4af3b1	0.19819523
4	0x3c90e3fd	0.017686838
5	0x3cdd8b54	0.027043976
6	0xbeb1547a	-0.34634763
7	0x3c52e2da	0.012871468
8	0x3f145aef	0.57951254
9	0xbd3859e6	-0.04500761
10	0xbcf653e4	-0.030069299
11	0x3e4d5f22	0.20055822
12	0xbdf7fa20	-0.121082544
13	0x3da07ea9	0.078366585
14	0x3ed79d4d	0.42112198
15	0x3e07ddd4	0.13268214
16	0x3e28c962	0.16483071
17	0x3c11ac19	0.008891129
18	0x3dbfb9cb	0.09361609
19	0x3c537211	0.0129056135
20	0x3df83715	0.12119881
21	0x3d20a22d	0.039217163
22	0xbd36fea0	-0.044676423
23	0xbdbb3aa9	-0.09142048
24	0x3d7945e0	0.060857654
25	0xbe1c8b9b	-0.1528763
26	0xbe5ffcf5	-0.21873839
27	0x3d53ac31	0.051677886
28	0x3d96dcfe	0.0736637
29	0x3d1cdf46	0.038298868
30	0xbe34dd4d	-0.17662545
31	0x3daeb6dd	0.08530972
32	0xbef8b499	-0.48575285
33	0x3ecd6715	0.40117708
34	0xbdae7677	-0.08518689
35	0x3dac55cc	0.08414802
36	0x3f135af7	0.57560676
37	0x3e1655eb	0.14681213
38	0x3de35eee	0.11102091
39	0x3d5899e0	0.05288112
40	0xbd979a82	-0.07402517
41	0xbe3acd67	-0.18242417
42	0x3d4fa6b2	0.050696082
43	0x3d854118	0.06506556
44	0x3df63366	0.12021522
45	0x3e7b4159	0.24536647
46	0x3da09c43	0.078423046
47	0x3de0f8b3	0.109849356
48	0x3e5b2feb	0.21404998
49	0x3f0adebd	0.5424612
50	0x3e7b7bbf	0.24558924
51	0xbd69a129	-0.05703846
52	0x3e088e8c	0.13335627
53	0x3e1c0bf0	0.15238929
54	0x3eab2a14	0.3343054
55	0x3de7de8a	0.11321743
56	0xbe163dec	-0.14672059
57	0xbeeb3181	-0.45936206
58	0x3da919a5	0.082568444
59	0x3da7a39c	0.08185503
60	0xbe6f8f04	-0.233944
61	0x3d910468	0.070809186
62	0xbe9d4e04	-0.30723584
63	0x3e98ef83	0.29870233
64	0x3dcbf87b	0.09959503
65	0x3df1f207	0.11813741
66	0xbeb6a727	-0.35674402
67	0xbe370f8a	-0.17877021
68	0x3eb6ab3c	0.35677516
69	0x3cacc55a	0.021090198
70	0x3d92611f	0.07147431
71	0x3e9d250c	0.30692327
72	0x3dd281ba	0.1027865
73	0x3e1f1e8a	0.15538993
74	0x3e76e688	0.24111378
75	0x3d14e423	0.03635038
76	0x3dd3ecd6	0.10347907
77	0x3ca4efe6	0.020133924
78	0x3d92e55d	0.07172654
79	0x3d3660f9	0.044526074
80	0xbdb5e34c	-0.08881244
81	0x3cedab44	0.02901233
82	0xbc9a608c	-0.018844865
83	0x3e3c2468	0.18373263
84	0x3e45639b	0.19276278
85	0x3e0fd291	0.14045168
86	0x3e2c688e	0.1683676
87	0x3d818837	0.06324809
88	0x3e095476	0.13411126
89	0x3dd9328f	0.106053464
90	0xbd00b1a8	-0.031419426
91	0x3e21e941	0.15811636
92	0x3d0463fd	0.03232192
93	0x3e99fcd5	0.30075708
94	0x3e23ce33	0.15996628
95	0x3d3e5947	0.04647186
96	0x3df8403c	0.12121627
97	0x3d884ef2	0.066556826
98	0x3e30f529	0.17281021
99	0x3ca5f859	0.020260023
100	0x3e101eeb	0.14074294
101	0x3dec622b	0.115421616
102	0x3e083c5f	0.1330428
103	0x3cfb0a19	0.030644463
104	0x3e096725	0.13418253
105	0x3de79aa0	0.11308789
106	0xbc45a1f3	-0.0120625375
107	0x3db3ec53	0.0878531
108	0x3d318401	0.04333878
109	0xbdcae34e	-0.09906636
110	0x3daef447	0.08542686
111	0x3d1afcef	0.037838873
112	0xbd0a3247	-0.033739354
113	0xbd6ac20e	-0.05731397
114	0x3e3c0e1a	0.18364754
115	0x3e4f63b8	0.20252883
116	0xbe467ed5	-0.1938432
117	0x3e6181ed	0.22022219
118	0xbe2c98c4	-0.1685515
119	0x3d59be6c	0.053160116
120	0x3e128698	0.14309156
121	0x3d436e01	0.04771233
122	0x3dbc0d56	0.09182231
123	0xbda425fd	-0.08015058
124	0x3da89a36	0.082325384
125	0xbe957360	-0.29189587
126	0xbeeaf644	-0.4589101
127	0xbd1b8120	-0.03796494
128	0x3c8204b7	0.015871389
129	0x3e9f8d7e	0.31162637
130	0x3d9fa928	0.07795936
131	0x3e0b98db	0.13632528
132	0xbe0cf118	-0.13763845
133	0x3a5fe85e	0.00085414003
134	0x3d9fe451	0.0780722
135	0x3d6caea6	0.057783745
136	0x3f0b0147	0.54298824
137	0xbcf3bf61	-0.029754343
138	0xbd205a4d	-0.039148618
139	0x3e475d01	0.19469072
140	0xbd4084e6	-0.04700174
141	0x3d7c1531	0.061543647
142	0x3e9969ac	0.29963434
143	0x3dba7e46	0.09106116
144	0x3e19d396	0.1502212
145	0x3d3144c9	0.04327849
146	0x3dedb4d7	0.11606758
147	0xbd0fac45	-0.0350764
148	0x3e2bd3b9	0.16779985
149	0x3dbfc1d1	0.093631394
150	0xbeb4d148	-0.3531592
151	0x3db7b754	0.08970514
152	0x3de4a8ca	0.111650065
153	0xbecb8690	-0.397511
154	0xbe3ac62d	-0.1823966
155	0x3bd2bed2	0.006431439
156	0x3db13dc4	0.08654359
157	0x3d7fa4e9	0.06241313
158	0xbdfae663	-0.12250974
159	0x3d93720e	0.071994886
160	0xbd2dd9ee	-0.042444162
161	0x3e0c7704	0.13717276
162	0xbd859f51	-0.06524528
163	0x3dd337ce	0.10313378
164	0x3ec5838d	0.38576928
165	0x3e1eb166	0.1549736
166	0x3e32a6fe	0.17446515
167	0x3db07336	0.08615725
168	0xbd9fc404	-0.07801059
169	0x3e9434ae	0.2894644
170	0x3d09cfde	0.033645503
171	0xbc3d3d1a	-0.011550212
172	0x3dacf006	0.08444218
173	0x3e875e29	0.26439026
174	0x3e768fa7	0.24078237
175	0x3e05f704	0.1308251
176	0xbe7e03d9	-0.24806155
177	0x3ec9dcb6	0.39426202
178	0x3e84e1fb	0.2595366
179	0x3dad2b8b	0.08455571
180	0x3d3798d7	0.044823494
181	0x3d7f0e2c	0.062269375
182	0x3e33fce0	0.17576933
183	0x3d2284b1	0.039677326
184	0xbe6f63a3	-0.23377852
185	0x3c355285	0.0110670375
186	0x3e1d82a7	0.15381871
187	0x3d84a44f	0.06476652
188	0xbe1d6661	-0.15371086
189	0x3dc69758	0.09696835
190	0xbe4fab31	-0.20280148
191	0x3e5d0dc5	0.21587284
192	0x3cb6a51c	0.022295527
193	0x3ddd66b2	0.10810603
194	0x3e844062	0.2583037
195	0x3e1a4e25	0.15068872
196	0x3db78c25	0.08962277
197	0xbcc69637	-0.02424155
198	0x3dce57a4	0.1007531
199	0x3d4dfbfe	0.050289147
200	0x3d9ec08d	0.0775157
201	0x3e0e34f9	0.13887395
202	0x3e9a7ba0	0.30172443
203	0x3dcff3b1	0.10153902
204	0x3e806923	0.25080213
205	0x3e0c3da3	0.13695388
206	0x3dda40ed	0.10656915
207	0x3d44d9ce	0.048059277
208	0x3e16b17d	0.14716144
209	0x3e210e66	0.15728149
210	0x3dd85bc0	0.10564375
211	0x3db19a3c	0.08671996
212	0x3e8ece0c	0.27891576
213	0x3e18381a	0.14865151
214	0x3ddf6b85	0.109091796
215	0x3d9d33b6	0.07675879
216	0x3e7af78f	0.24508499
217	0x3d989252	0.074497834
218	0x3c162430	0.009163901
219	0x3e0e7e2f	0.13915323
220	0x3dd75b82	0.105155006
221	0x3e762975	0.24039252
222	0x3dd19d01	0.10235024
223	0x3d8576c3	0.065167926
224	0x3de1a445	0.1101766
225	0x3de2b0ce	0.11068879
226	0x3cf8ccab	0.03037103
227	0x3c94ff50	0.018188149
228	0x3dc6d599	0.09708709
229	0x3d438df3	0.047742795
230	0x3d990962	0.07472493
231	0x3d96c284	0.0736132
232	0x3e1b1811	0.151459
233	0x3d97e465	0.0741661
234	0x3d264970	0.04059738
235	0xbba25220	-0.0049536377
236	0x3e01cb18	0.1267513
237	0xbdbaaecc	-0.09115371
238	0x3dc66533	0.09687271
239	0x3e41110e	0.18854162
240	0xbc853eff	-0.01626539
241	0x3e06f6ab	0.13180034
242	0xbdd85ec1	-0.10564948
243	0x3e25587f	0.1614704
244	0x3cfa4c86	0.030554067
245	0x3e7149a5	0.2356325
246	0xbe3f60dc	-0.18689293
247	0x3d26c8d2	0.04071886
248	0xbdb41407	-0.087928824
249	0x3e273b31	0.16331173
250	0x3dd19c73	0.102349184
251	0x3da738cc	0.0816513
252	0x3e056591	0.13027026
253	0xbdb069fb	-0.08613964
254	0x3dc21677	0.09476941
255	0xbcf26499	-0.029588984

fc3.bias f4 [4]
0	0x3e3982fa	0.1811637
1	0x3e766386	0.24061403
2	0x3e74f243	0.2392054
3	0x3e95d139	0.29261187
