checkpoint.pth (torch, 29645 bytes, 6 tensors)

fc1.weight f4 [64, 37]
0	0x3d43588d	0.04769187
1	0xbc5658b0	-0.013082668
2	0xbe3e7deb	-0.18602721
3	0xbdd2ff8f	-0.1030265
4	0xbebb04c0	-0.3652706
5	0x3df47106	0.1193562
6	0xbd03cb0a	-0.032176055
7	0x3d5b3912	0.053521223
8	0x3cee33ed	0.029077495
9	0xbda216af	-0.07914483
10	0xbca4f4fe	-0.020136353
11	0xbd512d24	-0.05106844
12	0xbe376ed8	-0.17913377
13	0xbb0a87b4	-0.0021138014
14	0xbe637ec3	-0.22216325
15	0x3cd4a2d2	0.025956545
16	0x3c86e211	0.016465219
17	0xbd867134	-0.065645605
18	0x3e6ca064	0.23108059
19	0xbe53ce4d	-0.20684166
20	0x3cc81e36	0.024428468
21	0x3e41d542	0.18929008
22	0x3dd76e58	0.10519093
23	0x3e10c0a8	0.14135993
24	0x3cc6f421	0.024286332
25	0x3cf37efa	0.029723633
26	0x3d3454dd	0.044026244
27	0x3d4f2760	0.05057466
28	0xbd8a6721	-0.067579515
29	0xbbcd79d5	-0.006270627
30	0x3d150f39	0.03639147
31	0xbdba3cfc	-0.09093663
32	0xbbf4017d	-0.0074464665
33	0xbd08fe53	-0.033445667
34	0xbe3b7830	-0.18307567
35	0xbe8e5293	-0.27797374
36	0xbc5524ce	-0.013009263
37	0x3dae4023	0.08508327
38	0x3e594a66	0.21219787
39	0xbd812834	-0.06306496
40	0xbdd48cc6	-0.10378413
41	0xbe5c7603	-0.21529393
42	0xbbb9b665	-0.005667495
43	0xbdd875f3	-0.10569372
44	0xbd4beca8	-0.04978624
45	0xbe0ebc7d	-0.1393909
46	0xbea106e3	-0.31450567
47	0x3da5a981	0.08088971
48	0xbd21c468	-0.03949395
49	0xb9d76cda	-0.00041089096
50	0x3d9d071e	0.07667373
51	0x3cb56c0f	0.022146253
52	0x3da7dfa8	0.08196956
53	0xbdd858b6	-0.10563795
54	0x3cbd2dae	0.02309307
55	0x3ba1e15e	0.004940196
56	0x3d3ee740	0.046607256
57	0xbe462f55	-0.19353993
58	0xbe597ee7	-0.21239816
59	0xbcd08057	-0.025451822
60	0x3d8c58bd	0.06852863
61	0xbe0a6295	-0.13514169
62	0xbe063f2d	-0.13110037
63	0xbdaf7f62	-0.08569218
64	0xbe0ed945	-0.13950069
65	0x3e585dfb	0.211296
66	0xbc87716b	-0.016533574
67	0xbd678387	-0.05652192
68	0x3db989bc	0.09059474
69	0x3e02d123	0.12775092
70	0x3dcdca9c	0.1004841
71	0x3e3103d1	0.17286612
72	0x3e0b0c0e	0.13578817
73	0x3d0ff910	0.035149634
74	0xbd8e16f3	-0.06937971
75	0xbdbf74f4	-0.09348479
76	0x3e2ffb06	0.17185602
77	0xbcd2a3fb	-0.025712958
78	0xbec206be	-0.3789577
79	0xbee1fc03	-0.44137582
80	0xbdcf3ded	-0.10119233
81	0x3eb8623b	0.36012444
82	0xbd464c9f	-0.048412915
83	0xbe5d17c0	-0.21591091
84	0x3d63bdcc	0.055600926
85	0xbe155f72	-0.14587191
86	0x3e09b390	0.13447404
87	0xbcd32952	-0.025776539
88	0x3da803e3	0.08203866
89	0x3bc8d829	0.006129284
90	0xbdb69699	-0.08915443
91	0x3da92e4a	0.08260782
92	0x3def149a	0.11673851
93	0x3e9e65e6	0.30937117
94	0xbe486f99	-0.19573821
95	0x3d4e509e	0.05036985
96	0x3d3c0240	0.045900583
97	0xbe215c3f	-0.15757845
98	0x3dfd1e16	0.12359254
99	0xbe8b0451	-0.2715173
100	0x3d19e66a	0.037573256
101	0x3e6b6ddf	0.22991131
102	0xbd4c9428	-0.04994598
103	0xbc3404ab	-0.010987441
104	0xbe9a5dbe	-0.30149645
105	0x3d5fe9a7	0.054666188
106	0xbd80adf6	-0.062831804
107	0xbd9757c4	-0.07389787
108	0xbe043f2e	-0.12914726
109	0x3d05d9da	0.032678463
110	0x3ceef70f	0.029170541
111	0xbd39f469	-0.045399103
112	0x3ea06ea7	0.3133442
113	0x3d50c305	0.050967235
114	0x3d86c5ab	0.06580671
115	0xbed9f5b5	-0.42570272
116	0xbccb90e7	-0.024849368
117	0x3e6ee9ad	0.23331328
118	0x3e2e2399	0.17005767
119	0xbddae472	-0.10688104
120	0xbf87f110	-1.0620441
121	0x3c98c5ab	0.018648943
122	0x3db3191c	0.087450236
123	0xbda564f9	-0.080759
124	0x38a3b080	7.8053214e-05
125	0xbc638cbe	-0.013888536
126	0xbda10336	-0.078619406
127	0x3e0be01e	0.13659713
128	0xbd2685da	-0.040654995
129	0xbe9fec99	-0.31235197
130	0xbf0b929a	-0.5452057
131	0x3c18d897	0.009328983
132	0x3dcffa8f	0.10155212
133	0x3e05f227	0.13080655
134	0xbdd7dd92	-0.10540308
135	0xbd22557f	-0.039632317
136	0x3d1b2092	0.03787286
137	0x3e5290ef	0.205631
138	0x3e4ab803	0.19796757
139	0xbecb0801	-0.39654544
140	0xbfa2d790	-1.2722034
141	0x3e1bbddc	0.15209144
142	0x3ea00d4a	0.3126014
143	0x3e26f503	0.16304402
144	0xbd91a1fb	-0.071109734
145	0xbf5aa0ad	-0.8540142
146	0xbcdf1833	-0.027233219
147	0x3c19c53d	0.009385404
148	0xbe3d8c1b	-0.18510477
149	0xbeab111f	-0.334115
150	0xbd26f771	-0.040763322
151	0xbe706353	-0.23475389
152	0x3d2b261f	0.041784402
153	0xbdae7b50	-0.08519614
154	0x3c8fba66	0.017544936
155	0x3db55f54	0.08856073
156	0xbdf223e4	-0.11823252
157	0xbe798f9b	-0.24371187
158	0xbe0d06e3	-0.13772158
159	0x3d8eefac	0.069793075
160	0xbe34fe7e	-0.17675206
161	0xbe034f6b	-0.12823264
162	0xbe8041c5	-0.25050178
163	0xbe808be2	-0.25106722
164	0xbcd71962	-0.02625722
165	0xbdd73e83	-0.1050997
166	0x3d0cc588	0.034368068
167	0x3e9d6336	0.30739754
168	0xbd6e95f6	-0.058248483
169	0xbe9b47c6	-0.30328196
170	0xbd10fa6a	-0.035395063
171	0x3d1fa36b	0.038974207
172	0x3e4412c8	0.1914779
173	0xbcc49ded	-0.024001086
174	0xbdc0171d	-0.093794085
175	0xbd1e0d1b	-0.038586717
176	0x3cd4f656	0.025996368
177	0x3d17a76f	0.03702491
178	0x3e3236ad	0.1740367
179	0xbf0e1e93	-0.555154
180	0x3e0d9aa2	0.13828519
181	0xbe85dea0	-0.26146412
182	0x3f2114b1	0.629222
183	0x3c91bf0f	0.0177913
184	0x3be59524	0.0070063043
185	0xbd82ccae	-0.06386696
186	0xbde2e6b0	-0.110791564
187	0x3da6000e	0.08105479
188	0x3dace840	0.08442736
189	0x3e0e78ff	0.13913344
190	0x3e80614b	0.2507423
191	0x3e1d4807	0.15359508
192	0xbd383352	-0.044970818
193	0xbeaf447a	-0.3423193
194	0xbfd920d3	-1.6963142
195	0x3d30069f	0.042975064
196	0xbd270935	-0.040780265
197	0xbe0d7c1a	-0.13816872
198	0xbe19e1ad	-0.15027495
199	0xbc3e5520	-0.011616975
200	0xbd84a360	-0.06476474
201	0x3e090282	0.13379863
202	0xbddf4036	-0.10900919
203	0x3cb15fc4	0.02165211
204	0xbd973d07	-0.07384687
205	0xbcbebf43	-0.02328456
206	0x3dfaaff7	0.12240594
207	0x3dda92ba	0.10672517
208	0x3e0e2f53	0.1388524
209	0x3dca0812	0.098648205
210	0x3c0be0b5	0.008537461
211	0x3b26329c	0.0025359755
212	0xbc676262	-0.014122577
213	0x3db11e4b	0.08648356
214	0x3ea27444	0.3172933
215	0x3d1d8354	0.038455322
216	0xbdced94f	-0.10100042
217	0x3d8a1267	0.06741791
218	0x3e0ebad5	0.13938458
219	0x3db7a86d	0.089676715
220	0x3c155942	0.009115519
221	0x3b77c59d	0.0037806996
222	0xbd50acaa	-0.050945915
223	0xbc99ab1d	-0.018758351
224	0xbe52f95e	-0.20602939
225	0x3c65af82	0.014018895
226	0xbe310e21	-0.17290546
227	0xbdf6d7ec	-0.120529026
228	0xbe4c7d50	-0.19969678
229	0xbd0cceab	-0.03437678
230	0x3e146a6a	0.14493719
231	0x3e742ab4	0.23844415
232	0x3e256eb4	0.16155511
233	0xbc722b4e	-0.014780832
234	0xbe711670	-0.23543715
235	0xbca2544f	-0.019815592
236	0x3ea6d655	0.32585397
237	0xbe92b06a	-0.28650218
238	0xbe2cfe93	-0.16893987
239	0x3e71abc9	0.23600687
240	0xbe8d328a	-0.2757762
241	0xbe03ce55	-0.12871678
242	0xbe5e831f	-0.21729706
243	0xbdbb1020	-0.09133935
244	0xbba63de9	-0.0050732982
245	0xbc948edc	-0.018134527
246	0x3d946771	0.072462924
247	0xbf0c7bfb	-0.5487668
248	0x3e300757	0.171903
249	0xbb46bbfc	-0.003032445
250	0xbef79e72	-0.48363072
251	0x3e8fabf5	0.2806088
252	0xbda09921	-0.07841707
253	0xbd13967f	-0.036032196
254	0xbea9ad05	-0.33139816
255	0x3e7e2fa8	0.24822867

fc1.bias f4 [64]
0	0x3deda0a4	0.116029054
1	0xbdc6557c	-0.096842736
2	0xbe481cbf	-0.19542216
3	0x3ccd8310	0.02508691
4	0x3ddcbb13	0.10777869
5	0xbc9186d5	-0.017764488
6	0xbe32deb5	-0.17467768
7	0x3df5d4ec	0.12003502
8	0xbca2b5c1	-0.019862058
9	0xbe41db06	-0.18931207
10	0x3dd7b7fc	0.10533139
11	0x3e30b13d	0.17255111
12	0x3e0b9457	0.13630806
13	0x3dade51b	0.08490964
14	0xbdd460f6	-0.10370056
15	0xbe035228	-0.12824309
16	0x3e11d78a	0.14242378
17	0x3ceb1708	0.028697506
18	0xbc9465a2	-0.018114869
19	0xbe861cb2	-0.26193768
20	0xbd75ab23	-0.05997766
21	0x3cf826eb	0.030291995
22	0xbd8d41a0	-0.068972826
23	0xbda32060	-0.079651594
24	0xbe065d3d	-0.13121505
25	0x3d316597	0.043309774
26	0xbd7f6923	-0.062356126
27	0xbe672022	-0.22570851
28	0x3d19d96f	0.037560876
29	0x3e4e6327	0.20155011
30	0xbc1f1a45	-0.009710853
31	0xbc89de2a	-0.016829569
32	0x3d691523	0.056904923
33	0x3d4bd508	0.04976371
34	0xbe2f1849	-0.17099108
35	0xbc102d00	-0.008799791
36	0xbd94a70c	-0.07258424
37	0xbd6b0ab7	-0.057383265
38	0xbc4c55f8	-0.012471668
39	0xbd1e5a23	-0.03866018
40	0xbd752471	-0.059849206
41	0xbd6b7581	-0.057485107
42	0xbdc94612	-0.09827818
43	0x3e904eb9	0.2818506
44	0x3e315df2	0.17320994
45	0xbd01a3b5	-0.031650264
46	0xbdb3b17d	-0.087740876
47	0xbe0712e0	-0.13190794
48	0xbe57d65e	-0.21077868
49	0xbd33677b	-0.04379986
50	0xbdd1d099	-0.10244865
51	0x3d4a9769	0.049460802
52	0xbd0af26a	-0.03392259
53	0xbc4f1b1c	-0.012640741
54	0xbe4d7245	-0.20063122
55	0x3ce5a3cb	0.028032204
56	0x3dedf5ba	0.11619134
57	0xbddc8b76	-0.107687876
58	0xbe0db3dd	-0.13838144
59	0xbdba726c	-0.091038555
60	0xbd666779	-0.056251023
61	0x3e34f1f6	0.17670426
62	0x3e2586d8	0.1616472
63	0x3c77ec78	0.015132062

fc2.weight f4 [64, 64]
0	0xbd17e72a	-0.03708569
1	0xbdc8ff16	-0.09814279
2	0x3d867a9e	0.06566356
3	0x3dc5b598	0.09653777
4	0xbe901fc5	-0.28149238
5	0xbcfaf12e	-0.030632582
6	0x3e51ba9c	0.20481342
7	0xbe3b76eb	-0.18307082
8	0xbe2e3a4a	-0.17014423
9	0xbc906c54	-0.01762978
10	0x3d6a8acc	0.057261273
11	0x3e0499d8	0.12949312
12	0xbe050028	-0.12988341
13	0x3e42d522	0.19026616
14	0xbb3a9eb0	-0.0028475933
15	0x3d2c8ca1	0.0421263
16	0xbe5077ea	-0.20358244
17	0xbd056ba5	-0.03257336
18	0x3e28e088	0.16491902
19	0xbcbe5ab2	-0.023236606
20	0x3d3d07af	0.046149906
21	0xbe16aed4	-0.14715129
22	0x3b6c1d2b	0.0036028128
23	0xbe161d5a	-0.14659634
24	0xbf07204a	-0.52783644
25	0xbdf80cdb	-0.12111827
26	0x3d0aa575	0.0338492
27	0xbe3f465c	-0.18679184
28	0x3de6842f	0.11255681
29	0x3e994e88	0.29942727
30	0x3e69625c	0.22791427
31	0xbd9514f2	-0.072793856
32	0x3e9040de	0.2817449
33	0xbed34f66	-0.41271514
34	0xbe8e1b80	-0.27755356
35	0x3df07265	0.11740569
36	0xbe4de555	-0.20107014
37	0x3da7ae47	0.08187538
38	0xbe953906	-0.29145068
39	0xbd687fb9	-0.05676243
40	0xbe54ff99	-0.20800628
41	0xbc98a47d	-0.018633122
42	0x3e98d910	0.29853106
43	0xbdb110db	-0.08645793
44	0x3c1763d4	0.0092401095
45	0xbe26e3c0	-0.16297817
46	0x3cf53a13	0.029934919
47	0xbc667364	-0.014065597
48	0xbe832038	-0.25610518
49	0xbd57b302	-0.05266095
50	0xbb023626	-0.00198687
51	0x3e0b7c77	0.13621698
52	0x3dd5a4dc	0.10431835
53	0xbd111125	-0.03541674
54	0x3e2f6977	0.17130075
55	0xbdde0f10	-0.10842717
56	0x3b9229f5	0.004460568
57	0xbe5d9b4b	-0.21641271
58	0xbd410e26	-0.047132634
59	0x3dd5ed02	0.10445596
60	0xbde3235f	-0.11090731
61	0x3dcad0e3	0.09903123
62	0xbd98bb14	-0.07457557
63	0xbded09a2	-0.11574103
64	0xbd8cdd9f	-0.06878208
65	0x3c291bd1	0.010321573
66	0xbe190990	-0.14945054
67	0x3dc9cf6b	0.09854015
68	0x3d1ea57d	0.03873204
69	0x3e6f39e1	0.23361923
70	0xbe776e76	-0.24163231
71	0xbd8a8c89	-0.06765086
72	0xbe465221	-0.19367267
73	0x3e88e89d	0.2673997
74	0x3dac96f4	0.084272295
75	0x3ec305b2	0.38090283
76	0xbdc93f53	-0.09826531
77	0x3cc090f9	0.023506628
78	0x3c99bed0	0.018767744
79	0xbbafcb86	-0.005364838
80	0x3d3ac899	0.04560146
81	0xbe09ea68	-0.13468325
82	0xbd1e64a0	-0.038670182
83	0x3e257b2c	0.16160268
84	0x3d452c3d	0.048137892
85	0xbe280e60	-0.16411734
86	0xbe1ffe4f	-0.15624355
87	0xbc339181	-0.010959984
88	0xbe8d3cc3	-0.2758542
89	0x3e8013c8	0.25015092
90	0xbe509d30	-0.20372462
91	0xbe573611	-0.21016718
92	0x3be5564a	0.006998812
93	0x3ebe1d89	0.3713191
94	0xbe4af491	-0.19819857
95	0xbedfd9cb	-0.4372085
96	0xbe81de40	-0.25364876
97	0xbd4bb372	-0.04973168
98	0x3deb5591	0.1149093
99	0x3df74c46	0.12075095
100	0xbbc00984	-0.0058605094
101	0x3d84d79e	0.06486438
102	0x3df78067	0.12085038
103	0xbea2cae5	-0.3179542
104	0xbe214f0e	-0.15752813
105	0xbe170278	-0.14747036
106	0x3d9909aa	0.074725464
107	0xbe1bc1dc	-0.1521067
108	0xbdde1df9	-0.108455606
109	0xbe3f7b1d	-0.18699308
110	0xbe535e7b	-0.2064151
111	0x3e229b93	0.1587966
112	0xbd252ddf	-0.04032695
113	0xbda6d559	-0.081461616
114	0xbe3dc032	-0.18530348
115	0x3e15ea1e	0.1464009
116	0xbeb19466	-0.34683532
117	0xbeb73c9c	-0.3578843
118	0x3e136732	0.14394835
119	0xbd878825	-0.066177644
120	0xbe26b47a	-0.16279784
121	0xbeba1e01	-0.36351016
122	0x3e507f5d	0.20361085
123	0x3e990e1a	0.2989357
124	0xbdf19654	-0.11796251
125	0xbd613ff3	-0.054992627
126	0xbec6bfca	-0.38818198
127	0x3d034a83	0.03205348
128	0xbddd1225	-0.107944764
129	0xbee770a7	-0.45203134
130	0x3e74be4d	0.23900719
131	0x3e3bbf10	0.18334603
132	0xbe4d698e	-0.20059797
133	0x3da4bd71	0.080439456
134	0xbf164c9d	-0.5871065
135	0x3e31a099	0.1734642
136	0xbdbbc307	-0.09168058
137	0x3e84eb90	0.2596097
138	0x3de4502f	0.11148106
139	0xbeb39c31	-0.35080102
140	0x3e74a672	0.23891619
141	0x3d5b2d0d	0.05350976
142	0xbe9531ee	-0.29139656
143	0x3de5c6f0	0.11219585
144	0xbea3aa05	-0.31965652
145	0x3d915949	0.07097108
146	0x3d2eb2c2	0.042650945
147	0xbe87ed56	-0.2654826
148	0xbec58cc1	-0.3858395
149	0x3e189da2	0.14903882
150	0xbcceb1f8	-0.025231346
151	0xbe92b053	-0.2865015
152	0xbdfc2554	-0.12311807
153	0x3e0ecc93	0.13945226
154	0x3e2b422e	0.16724464
155	0xbee9eaa7	-0.45686838
156	0xbeae6e63	-0.34068593
157	0xbec62edb	-0.38707623
158	0x3e77c8f3	0.2419775
159	0xbe981e27	-0.29710504
160	0xbdc2e823	-0.09516933
161	0xbe278825	-0.16360529
162	0xbe3ef706	-0.1864892
163	0x3e04a618	0.12953985
164	0x3e02fdad	0.12792082
165	0x3eba19fb	0.36347947
166	0x3eadcd0c	0.339455
167	0xbf07e142	-0.5307809
168	0x3ea9540b	0.33071932
169	0xbcef72cc	-0.029229544
170	0x3cdb6968	0.02678366
171	0x3cb2d1ae	0.021828499
172	0xbdef8043	-0.11694386
173	0xbe10b6db	-0.14132254
174	0xbd8b2a93	-0.0679523
175	0xbe225101	-0.15851213
176	0x3d9fdb0d	0.078054525
177	0x3cac09dc	0.021000795
178	0xbec5810b	-0.38575014
179	0x3ddcf919	0.10789699
180	0xbe41da31	-0.1893089
181	0x3e437475	0.19087394
182	0x3d883414	0.06650558
183	0x3e0edce7	0.13951455
184	0x3e84dc17	0.25949165
185	0xbdc8a034	-0.09796181
186	0xbdc171f0	-0.0944556
187	0x3e1d8434	0.15382463
188	0xbe6aa660	-0.2291503
189	0x3d1cc317	0.03827199
190	0x3d80094b	0.062517725
191	0xbe2c0a18	-0.16800725
192	0xbd0db4d2	-0.03459627
193	0x3d8f8346	0.0700746
194	0xbdb238ab	-0.08702215
195	0x3d7fa277	0.062410798
196	0x3e2dd0cc	0.16974181
197	0x3cf7b2bc	0.030236594
198	0xbdd5ee88	-0.10445887
199	0xbe195234	-0.14972764
200	0xbe30d6ce	-0.17269441
201	0xbeef6679	-0.46757868
202	0xbc551bf8	-0.013007157
203	0x3e7b44d1	0.2453797
204	0xbc2f7ced	-0.010710937
205	0x3d5ae9ad	0.053445507
206	0x3d905425	0.07047299
207	0x3e3a030f	0.1816523
208	0xbd1ac737	-0.037787642
209	0x3da81196	0.08206479
210	0xbe364fb7	-0.17803846
211	0xbd25d866	-0.040489577
212	0x3e1d869a	0.15383378
213	0x3e389f66	0.18029556
214	0x3e76fc27	0.24119626
215	0x3e11a292	0.14222172
216	0x3eca183a	0.39471608
217	0x3dc3eba9	0.09566433
218	0x3e0aefd5	0.13568051
219	0xbe129576	-0.14314827
220	0xbd081f8c	-0.03323321
221	0x3cbe4010	0.023223907
222	0x3d4fdedc	0.050749645
223	0xbe6c9227	-0.23102628
224	0x3e23ea37	0.16007315
225	0xbe1a1d19	-0.15050162
226	0x3c87bbff	0.016569136
227	0x3d971ddf	0.07378744
228	0xbec810c7	-0.390753
229	0x3ea3554f	0.31901023
230	0x3e75fb7f	0.2402172
231	0x3e2d27c2	0.16909698
232	0x3d48a4b6	0.048985206
233	0xbd3db1cf	-0.04631215
234	0x3dfa7711	0.12229741
235	0xbe0f3f06	-0.13988885
236	0xbd5e4ab6	-0.05427047
237	0x3e96e20d	0.29469338
238	0x3cb1886d	0.021671498
239	0xbd97d728	-0.07414085
240	0xbbc3e238	-0.005977895
241	0xbd04192d	-0.032250572
242	0xbdadd138	-0.08487171
243	0x3d68d926	0.056847714
244	0xbdfd460e	-0.123668775
245	0x3ed71820	0.42010593
246	0xbebf582b	-0.37371954
247	0xbd41f9e5	-0.04735746
248	0xbe7d7c76	-0.2475451
249	0xbdabf7a2	-0.083968416
250	0xbdbefc2f	-0.09325444
251	0x3dae580d	0.08512888
252	0xbe698884	-0.22805983
253	0x3d84d6bb	0.06486269
254	0xbefe3dc2	-0.49656492
255	0x3d85b896	0.065293476

fc2.bias f4 [64]
0	0xbc0f9ae2	-0.008764954
1	0xbcf3f48b	-0.029779693
2	0x3e0f0c01	0.13969423
3	0xbdef189f	-0.11674618
4	0x3e765ad6	0.24058089
5	0x3e82ef8a	0.2557338
6	0x3d70a1a2	0.058747895
7	0xbbb33190	-0.005468555
8	0x3e9ce76c	0.3064531
9	0x3f15dab7	0.5853686
10	0xbe6cd9bc	-0.23129934
11	0x3e8fa705	0.28057113
12	0x3d3e2aae	0.04642742
13	0xbe00e67b	-0.12587921
14	0xbdc3baf3	-0.09557142
15	0x3cdc1184	0.02686382
16	0x3e22a589	0.15883459
17	0xbe04017f	-0.12891196
18	0xbd5ebff6	-0.054382287
19	0x3eba015b	0.3632916
20	0x3ee75cf2	0.451881
21	0x3f331a97	0.6996245
22	0xbe16c577	-0.14723764
23	0xbdecf74d	-0.115706064
24	0xbd147668	-0.036245733
25	0xbe080cdf	-0.1328616
26	0xbd5d42fb	-0.054018956
27	0xbd017990	-0.03161007
28	0xbdf9a6a3	-0.121899866
29	0x3d8eb8e1	0.069688566
30	0x3de70e20	0.11281991
31	0x3ea49e33	0.32151946
32	0xbd33a3d9	-0.04385743
33	0x3df6e2fc	0.120550126
34	0x3d66a1e4	0.056306735
35	0x3cbf3073	0.023338532
36	0xbe5972d7	-0.21235214
37	0xbe90d29d	-0.28285685
38	0xbd5ee8ca	-0.054421224
39	0xbbacb301	-0.0052703624
40	0xbdd06b2a	-0.1017669
41	0x3f2645bb	0.6495015
42	0x3ee1ca99	0.44099882
43	0xbe052f23	-0.13006262
44	0x3e08243e	0.13295075
45	0xbe34ea57	-0.17667519
46	0x3efb3cad	0.4906973
47	0xbdc2132a	-0.094763115
48	0x3e18932c	0.14899892
49	0xbe099936	-0.13437352
50	0xbc390c20	-0.011294395
51	0x3f1e8b29	0.6193109
52	0x3e6ef2d6	0.23334822
53	0x3dca3b4b	0.098745905
54	0x3e23dbb6	0.16001782
55	0xbe0a5000	-0.1350708
56	0xbe85015d	-0.25977603
57	0xbdfae463	-0.122505926
58	0x3da18094	0.078858525
59	0x3c048a87	0.008089668
60	0xbd05ccab	-0.03266589
61	0x3eff0c9c	0.49814308
62	0x3da22278	0.07916731
63	0xbe832698	-0.25615382

fc3.weight f4 [4, 64]
0	0x3ce74371	0.0282304
1	0x3de1e816	0.11030595
2	0x3e8e8bef	0.27841136
3	0xbe4d11e5	-0.20026357
4	0x3e3cad14	0.18425399
5	0x3e1666c3	0.14687638
6	0x3ec9fd76	0.39451188
7	0xbe9f517d	-0.31116858
8	0x3e7a8516	0.24464831
9	0x3e191a6b	0.14951484
10	0xbe30cf21	-0.17266513
11	0x3ea2f1b0	0.31825018
12	0x3f06aab4	0.5260422
13	0x3eb2af4a	0.3489936
14	0xbd08b279	-0.03337333
15	0xbd54f674	-0.05199285
16	0x3e5c0142	0.21484855
17	0xbde0171b	-0.10941907
18	0x3d24a6e8	0.040198237
19	0x3e2ba2b5	0.16761287
20	0x3e1dafea	0.15399137
21	0x3e6a5f70	0.22887969
22	0x3d2cb218	0.04216203
23	0xbcd029b0	-0.025410503
24	0x3dde4082	0.10852148
25	0xbf233770	-0.63756466
26	0xbea996a9	-0.33122757
27	0x3ee7a122	0.45240122
28	0x3dbff510	0.09372914
29	0x3f07ad4b	0.529988
30	0xbf22b488	-0.6355672
31	0x3e1f0ec2	0.15532973
32	0x3d9312db	0.07181331
33	0x3eea569f	0.45769212
34	0xbc9ef3bf	-0.019403337
35	0x3ec58446	0.3857748
36	0xbea9c234	-0.33155978
37	0xbde2a6c9	-0.11066968
38	0xbd95e9f3	-0.07320013
39	0x3e3a92e8	0.18220103
40	0x3e814536	0.25248116
41	0x3e156d6c	0.14592522
42	0x3ebe47b1	0.3716407
43	0xbe255474	-0.16145498
44	0x3e09c5a9	0.13454308
45	0xbe485b92	-0.19566181
46	0x3e5d9ca8	0.21641791
47	0x3e9d1d41	0.3068638
48	0x3e35f3bb	0.17768757
49	0xbe81170f	-0.25212905
50	0x3ede74a1	0.43448356
51	0x3e5e225b	0.21692793
52	0x3e52ff91	0.20605303
53	0xbd0b4057	-0.033996906
54	0x3d8b446f	0.06800162
55	0xbd2999cb	-0.041406434
56	0xbdbbbbdb	-0.0916669
57	0x3d4a40f4	0.04937835
58	0x3db3131d	0.0874388
59	0x3d8f20e4	0.06988695
60	0x3de9f529	0.11423714
61	0x3e794cb2	0.24345663
62	0x3bcf7a81	0.0063317423
63	0xbe56db02	-0.20981982
64	0x3e078b26	0.13236675
65	0x3e02663b	0.1273431
66	0x3e7c43e6	0.24635276
67	0xbe17e95a	-0.1483511
68	0x3e2726a3	0.16323332
69	0x3e6e4916	0.23270068
70	0x3ee2b3f8	0.4427793
71	0xbd8217f2	-0.063522235
72	0x3e88de4f	0.26732108
73	0x3e345de6	0.17613944
74	0xbd269a0b	-0.04067425
75	0x3ea92899	0.33038786
76	0x3f0186b3	0.5059616
77	0x3ea67c00	0.3251648
78	0xbca5de60	-0.020247638
79	0xbdff5c4f	-0.12468778
80	0x3e962a12	0.29328972
81	0x3ddd5dfb	0.10808941
82	0xbea63c36	-0.32467812
83	0x3dd8d936	0.10588305
84	0x3e5fb904	0.21847922
85	0x3e82a0df	0.2551336
86	0xbec767ed	-0.38946477
87	0x3dccc863	0.09999158
88	0x3dc857ca	0.097823694
89	0xbe487a02	-0.19577792
90	0xbbf69a82	-0.007525743
91	0x3ea302eb	0.31838164
92	0xbd47e661	-0.04880369
93	0x3efe3126	0.49646872
94	0x3dc2180b	0.09477242
95	0x3e3f3e62	0.18676141
96	0xbd4957eb	-0.04915611
97	0x3eef8575	0.46781507
98	0x3dbe78b9	0.0930037
99	0x3ea08fc1	0.31359676
100	0xbeacf700	-0.33782196
101	0xbd8cf01c	-0.06881735
102	0xbdcc1e66	-0.099667355
103	0x3ec2a468	0.38016057
104	0xbb9ebafe	-0.0048440685
105	0x3e48b024	0.19598442
106	0x3e84df4d	0.25951615
107	0xbe0a2c36	-0.13493428
108	0x3e73c9e2	0.23807481
109	0xbe9abc8e	-0.3022198
110	0x3e3a74da	0.18208638
111	0x3f2e2c31	0.6803618
112	0xbc008d79	-0.00784623
113	0xbe57ce92	-0.21074894
114	0x3eb7cb13	0.3589712
115	0x3e074d91	0.13213183
116	0x3e1940e0	0.14966154
117	0x3dc50f0c	0.096220106
118	0x3e04f5f9	0.12984456
119	0xbbeb772b	-0.007185837
120	0xbe464897	-0.19363628
121	0xbe056292	-0.13025883
122	0x3d6969ba	0.056985594
123	0x3c487f74	0.012237418
124	0x3e448a19	0.19193305
125	0x3e110857	0.14163338
126	0x3e09b58a	0.13448158
127	0xbe01f29a	-0.12690201
128	0x3c7c76a5	0.015409146
129	0x3f1a1913	0.6019451
130	0x3c27dc4b	0.010245393
131	0xbca6d132	-0.020363424
132	0x3e43958d	0.19100018
133	0x3e8e8715	0.27837434
134	0x3ec591fe	0.38587946
135	0xbd844156	-0.06457774
136	0x3e2e9a69	0.1705109
137	0x3e2f30f3	0.17108516
138	0xbe2af0bb	-0.16693394
139	0x3e0bf0fd	0.13666148
140	0x3f19dd60	0.60103416
141	0xbde4aa05	-0.11165241
142	0xbd753b22	-0.059870847
143	0x3e0e3c44	0.13890177
144	0x3da45bbd	0.0802531
145	0x3e04f033	0.12982254
146	0xbed4806c	-0.41504228
147	0x3e0ad3e0	0.13557386
148	0x3e29f1dd	0.1659617
149	0x3e83c2ac	0.2573446
150	0xbd395436	-0.045246325
151	0x3cc40c37	0.023931606
152	0x3e8beed2	0.27330643
153	0xbd94338f	-0.072363965
154	0xbe5251d1	-0.20539023
155	0x3f11f759	0.5701805
156	0x3e16dbf5	0.14732344
157	0x3ecef00d	0.4041752
158	0xbe0fcc3a	-0.1404275
159	0x3d8aaf07	0.06771665
160	0xbe318fcb	-0.17340009
161	0x3eb491d9	0.35267523
162	0x3e802615	0.25029054
163	0x3e9af125	0.30262104
164	0xbd20379f	-0.039115544
165	0xbe86ec35	-0.26352087
166	0xbdd5ab22	-0.104330316
167	0xbf1a99fc	-0.6039121
168	0xbec51a94	-0.3849684
169	0x3e6c22f4	0.23060209
170	0x3e85e8f4	0.26154292
171	0x3dac2049	0.084045954
172	0x3d23c1ce	0.03997975
173	0xbe1a7d43	-0.15086846
174	0x3e660f46	0.22466764
175	0x3f3a24a1	0.7271214
176	0x3e456864	0.19278103
177	0xbecf8c1d	-0.40536585
178	0x3e0f962b	0.14022128
179	0x3e91c362	0.28469378
180	0x3e0f0027	0.13964902
181	0x3e329d4c	0.17442816
182	0x3e61b876	0.22043023
183	0x3d8e7b5b	0.06957122
184	0xbec80e66	-0.39073485
185	0xbee3d253	-0.44496402
186	0x3e16e4a6	0.1473566
187	0xbd6f2247	-0.0583823
188	0xbed32f16	-0.4124686
189	0x3e0b5b57	0.13609062
190	0xbee80dcc	-0.45323026
191	0xbe4ae7e6	-0.19815025
192	0x3ea3b1ac	0.3197149
193	0x3f004ded	0.50118905
194	0x3da56a72	0.080769435
195	0xbe26ab04	-0.16276175
196	0x3d53830b	0.051638644
197	0x3e4a5b7c	0.19761461
198	0x3ee12e61	0.43980697
199	0x3d85f0de	0.065400824
200	0x3ebe34e7	0.37149736
201	0x3e4f81d1	0.20264365
202	0xbe6e552a	-0.23274675
203	0xbd440aa2	-0.047861703
204	0x3eee4897	0.46539757
205	0x3eb85b9a	0.36007386
206	0x3d4dbd85	0.050229568
207	0x3d4727df	0.04862201
208	0x3ecf72b9	0.40517214
209	0x3f03a2ee	0.51420486
210	0x3e778f4a	0.24175754
211	0x3e270b93	0.16313009
212	0x3da60242	0.081058994
213	0x3e928ec3	0.28624544
214	0xbe488279	-0.19581021
215	0x3d5cbeb2	0.0538928
216	0x3e4688fd	0.19388194
217	0xbe1ed171	-0.15509583
218	0xbdd1c0b7	-0.102418356
219	0x3e7022bb	0.23450749
220	0x3de9791c	0.11400053
221	0x3e8b0303	0.27150735
222	0xbe163a5b	-0.14670698
223	0x3e19097c	0.14945024
224	0xbe283546	-0.16426572
225	0x3f0db919	0.5536056
226	0x3d671847	0.056419637
227	0x3e18654f	0.14882396
228	0xbeb6532b	-0.35610327
229	0xbea4d67a	-0.32194883
230	0x3e857d8c	0.26072347
231	0x3eccc033	0.39990386
232	0xbeef91fc	-0.46791065
233	0x3e882d1b	0.26596913
234	0x3e793084	0.24334913
235	0xbed1e5db	-0.40995678
236	0x3e9a709c	0.3016404
237	0xbebe85ac	-0.3721136
238	0x3e291382	0.16511348
239	0xbe0b1f1c	-0.13586086
240	0x3e5e62fa	0.21717444
241	0x3e41833a	0.18897715
242	0x3eb9d822	0.3629771
243	0x3e559164	0.20856243
244	0x3e71c7be	0.23611352
245	0x3e0e5d4d	0.13902779
246	0x3e8c9d55	0.27463785
247	0x3e086279	0.13318814
248	0xbe7e693e	-0.24844834
249	0xbe00326d	-0.12519236
250	0xbe3354b0	-0.17512774
251	0x3d6a38e6	0.05718317
252	0xbd82d91b	-0.06389066
253	0x3e19d05b	0.15020888
254	0xbf07d42e	-0.53058136
255	0xbe8acd26	-0.2710964

fc3.bias f4 [4]
0	0x3eec2c0c	0.46127355
1	0x3ec524f9	0.3850477
2	0x3e796d14	0.24358016
3	0x3e951d1e	0.29123777
