models/checkpoint.pt (torch, 47309 bytes, 6 tensors)

fc1.weight f4 [64, 37]
00000000: eb2c 2e3e 3e3a e8bd 04c4 13bd 4169 c5bd
00000010: 2d11 b1be 1364 0abd f9d7 8c3d 4434 77be
00000020: 493a b53d 0569 293d 7964 273e f847 11be
00000030: c5ea a33d 3c6d 473c 40e5 7dbd e105 f0bd
00000040: 097b dabd 2a0b 14be a140 7a3e b23e 9f3c
00000050: 60fd 0cbc 87c0 00be dfb9 c83d 7d6a 11bd
00000060: 6bed 7b3d c6ca d8bd 35eb 48be 9fa4 33be
00000070: ebb0 a53d be1b 3bbe 3d1b 02be 958c fd3c
00000080: c262 373d b925 9a3d 540c bf3e 1c78 2f3d
00000090: d720 803d c570 8b3d 401a 7abd bdc8 823d
000000a0: c89e 003b fbb3 a1bd de6b 813e cdd1 c0bd
000000b0: 60eb 31be 4a3c 33be b393 4bbf afcd f13d
000000c0: 8c1d 8bbd 7a83 bcbd 413e e73d f416 f0bc
000000d0: 893b c13d 2f73 97bd 91ed 75bb 2e21 b6bd
000000e0: 9b8c 92be 69da dfbd ba8f 813d 95ca 453d
000000f0: 0fd2 e83d 645b 3e3e ae8f 633e 7dfc f4bd
00000100: a2ae 6fbd 253a 143e f018 06be 5605 1cbc
00000110: f186 143d 83d6 403d d310 133c 1e78 443e
00000120: 17d6 63bc 990b d5b9 d059 35be 1f4f c33d
00000130: 18f0 e13d 37cb 5e3c ddea 093e b852 57be
00000140: a6c2 663e 32f7 6c3d b643 09be 8b08 73be
00000150: b380 983d b083 e1be eac4 473d 4af2 32bd
00000160: c804 2bbe 7ed6 44be c963 233d d1af f83d
00000170: 8787 313e 8a32 c4bc 064b cbbd 4a87 82bd
00000180: 0dff 90bd 6cfd f1be 65f8 b33d a8f9 3f3d
00000190: eb87 f9be 2c00 673e 7084 51be 7fa4 a1bd
000001a0: 9cee 1fbf 2383 67be 0d69 a53e 3044 0dbd
000001b0: 2de6 10bf adab 87bd ed43 2b3c 3728 6d3d
000001c0: 4870 473e 4cf8 6d3d 87c1 46bd c0c8 46be
000001d0: 969a 9bbe 430b ab3d a08a 353e d4ab 53be
000001e0: cfb1 d03d 2d17 75bc 13e7 b23d 8df0 74be
000001f0: 79b1 803d 3b17 86be 287f 603e 3c39 e9bd
00000200: 0de8 e63c a128 313e f5af 05bf 9d08 c4bd
00000210: dfc6 38bd e36c 933d 2eb4 363d fcaa 3a3e
00000220: 4f84 a53d f652 133e fb66 2e3d 6d33 6dbd
00000230: fb13 d13d 7fd6 623b cf22 47be 2068 10bb
00000240: 410e 94be 6978 ddbc 9894 ebbc 7ca4 0abd
00000250: 39ae 1e3c 6adb 043d a2dd 213d 4af0 89bd
00000260: 1045 57bd 5ad5 ba3e d677 c0be ffa0 cfbe
00000270: 29fe 9ebe 1de5 abbf b90e c53d d1e3 083d
00000280: 502e 713c 77ee d83c eadd 5cbc b7b8 1f3c
00000290: 8026 9e3c 4148 b93d 4f4f 043e 9b42 073e
000002a0: 3967 13be 43a5 04bd 6c37 abbd f740 95bd
000002b0: f90b ca3d e206 ad3c 9a70 ec3d 89b1 cf3d
000002c0: 542a 2a3e 7f24 273e 9aa8 903d 4456 713d
000002d0: 745c a43d 8904 803d b573 80bd 31b7 90bb
000002e0: 4bac b239 ab9a 80bd 63ee 95bb 6675 b5bc
000002f0: 9dc9 17bb 0f9c 91bd 8604 793d f9b3 1d3e
00000300: bac2 cf3c 7c06 07be f499 d3be 6946 aa3e
00000310: c107 29bd 4663 243d d7d6 e1bb e780 10bf
00000320: a6a7 0abd b352 e73d 4390 f33c 9e81 f2bd
00000330: c904 a1bb c967 83bd a024 d7bc 5d0b ae3d
00000340: 6676 b4bd bbe6 f73d 5383 86bd 9844 ea3c
00000350: 6644 2abd c37e b73d 2abb 17bd 4239 0a3e
00000360: 8493 bebd 00fc 823c 7861 5d3d 3efc d73c
00000370: 8dbb 2b3c a845 2bbb 83d7 08be 548b f6bd
00000380: dd5e 84bd eb7b 0cbe c212 11bc daf3 803e
00000390: 1b43 fb3c b4f5 553d 01a3 a0bc 0918 9fbe
000003a0: 7aa3 313e 67e2 c7bd b3d2 32bd 7e4c 68bd
000003b0: 91dd a0be dffd 11bc 69ae e63d 78ec 023d
000003c0: 3f9c 653e 5e8a 003e d6b4 2f3e 9d8e 653e
000003d0: 8314 43bd c28c e6bd 37e7 aabe d168 f23d
000003e0: f6b4 8fbc 1cb6 b33c 379a 16be 0f4f 61be
000003f0: ea9c 16be 0bf3 97bd 0515 873d d01d 223e
0.17009322 -0.11339234 -0.036075607 -0.09639216 -0.34583417 -0.033786844 0.06877131 -0.24141032
0.08849008 0.04135992 0.16346921 -0.1418761 0.08003763 0.01217204 -0.061986208 -0.11719871
-0.10667998 -0.14457384 0.24438716 0.019439075 -0.008605331 -0.12573443 0.09801077 -0.035501946
0.061505716 -0.10585551 -0.19620974 -0.17543267 0.08090385 -0.18272302 -0.12705703 0.030950824
0.044771917 0.07526726 0.37314093 0.042839155 0.06256264 0.068086185 -0.06106019 0.06385944
0.001962589 -0.07895657 0.2527761 -0.09415016 -0.17374945 -0.17503467 -0.79522246 0.11806809
-0.06792745 -0.09204765 0.11291171 -0.02930782 0.094351836 -0.073950164 -0.0037525634 -0.08893047
-0.28622898 -0.1093033 0.06326242 0.0482889 0.113681905 0.1858955 0.22222778 -0.11962221
-0.058516152 0.14475305 -0.1309545 -0.009522757 0.036261503 0.047079574 0.008976179 0.19186446
-0.013906023 -0.00040635167 -0.17710042 0.095365755 0.110321224 0.013598255 0.134685 -0.21027648
0.2253519 0.05785293 -0.13404736 -0.23733728 0.074464224 -0.44045782 0.048771776 -0.043688096
-0.16701043 -0.19222447 0.039890084 0.12142909 0.17336856 -0.02394988 -0.09926419 -0.063734606
-0.07079897 -0.47263658 0.08787612 0.04686895 -0.4873651 0.2255866 -0.20460677 -0.07892703
-0.62473464 -0.22608618 0.3230671 -0.034488857 -0.5660122 -0.066245414 0.0104532065 0.05789968
0.19476426 0.058098122 -0.048524406 -0.19412518 -0.30391377 0.083517574 0.17728662 -0.20671016
0.10190164 -0.014959139 0.0873548 -0.23919888 0.0628385 -0.26189598 0.21923506 -0.1138787
0.028186822 0.17300655 -0.52221614 -0.09571955 -0.045111533 0.07198503 0.044605426 0.18229288
0.080818765 0.14387116 0.04257868 -0.05791037 0.10208889 0.0034612713 -0.19446872 -0.002203472
-0.28917125 -0.027034955 -0.028757378 -0.03384827 0.009685093 0.032435812 0.039518006 -0.067352846
-0.052556098 0.364909 -0.37591428 -0.40552518 -0.31053284 -1.3429295 0.09621949 0.033420388
0.014720514 0.026480896 -0.013480643 0.009748629 0.019305468 0.090469845 0.12920879 0.13209002
-0.14394845 -0.03238417 -0.0836018 -0.07287782 0.09865565 0.021121446 0.115449145 0.10141284
0.1661771 0.16322516 0.07063408 0.05892016 0.080254465 0.06250865 -0.06272069 -0.0044163694
0.00034079174 -0.062795006 -0.004575537 -0.022150706 -0.0023160942 -0.07109844 0.06079533 0.15400685
0.025361408 -0.13186067 -0.41328394 0.33256844 -0.04126716 0.040133737 -0.006892066 -0.5644669
-0.03385129 0.112950705 0.029731875 -0.11841129 -0.0049139005 -0.0641628 -0.026262581 0.08498261
-0.08811645 0.12104555 -0.06568017 0.028597161 -0.041569136 0.08959725 -0.037043728 0.13498405
-0.0930548 0.015989304 0.05404803 0.026365396 0.010481727 -0.0026134048 -0.13363461 -0.120382935
-0.06463406 -0.13719146 -0.00885457 0.25186044 0.030671647 0.052236274 -0.019608976 -0.31073025
0.17347518 -0.0975998 -0.04365797 -0.056713574 -0.31419042 -0.008910625 0.11263735 0.031963795
0.22422884 0.12552783 0.17158827 0.22417684 -0.047626983 -0.11257316 -0.33379528 0.118363984
-0.017542344 0.021937422 -0.14707266 -0.22002815 -0.14708295 -0.07419404 0.06595806 0.15831685

fc1.bias f4 [64]
00000000: 1f83 02be 87ad babd 9666 b7bd 707e 15be
00000010: e6f1 adbd 2c10 fd3d 837c c33d 24c9 823d
00000020: 167d 58bd e163 493e 6742 99bc c0e3 523e
00000030: 718a e6bc d0f7 b8bd 2daa 54be c104 55be
00000040: 4f5b 1bbe 6825 1a3e 0fd9 e5bd 91fc 00be
00000050: 654a 91bd 91da 01bd c2cf a83d f1ec ddbb
00000060: c649 183b e736 2c3e 58bd d2bd e214 08be
00000070: 258b e4bc 4523 e03d 5893 68bd e16d 89bd
00000080: 37e4 b6b9 06d5 513c 656f 0fbe 7146 833d
00000090: cdff 333d 7fb4 2c3c cadf 133e 52ea 75bd
000000a0: c998 a3bd ff00 8dbd 55c1 83bd aa90 3bbd
000000b0: 437f 4b3e b799 f3bd 7192 643d 78e1 39bd
000000c0: ea13 493e 2357 df3c 4082 183e 243c a83d
000000d0: 8703 093b 6941 91bd 4014 f53d b7da 2d3e
000000e0: 9d9e 3cbe eed2 febd de14 4dbe cb26 10be
000000f0: 3817 a53d f9b9 1ebb 2a78 f7bd 7f89 8bbd
-0.12745331 -0.09115129 -0.089551136 -0.14599013 -0.08493404 0.123566 0.09545233 0.06386021
-0.052853666 0.19667007 -0.01870842 0.20594692 -0.028142186 -0.090316415 -0.20768042 -0.20802595
-0.1517155 0.15053332 -0.11223041 -0.12596346 -0.07094268 -0.03170258 0.08242752 -0.0067726304
0.0023237332 0.16817819 -0.10290021 -0.13289216 -0.02789838 0.10944227 -0.056781143 -0.06710411
-0.00034883778 0.012807136 -0.14007337 0.0640992 0.043945123 0.0105410805 0.14440838 -0.06003792
-0.07988126 -0.068849556 -0.064333595 -0.04579226 0.19872765 -0.11894553 0.05580372 -0.04538104
0.19636503 0.02726323 0.14893436 0.08214596 0.0020906643 -0.07092554 0.11966753 0.16977964
-0.18419881 -0.124425754 -0.20027491 -0.14077298 0.08061069 -0.0024219735 -0.12083466 -0.06813335

fc2.weight f4 [128, 64]
00000000: 3cdc 63bd 0fbf 4c3e c0d8 863d cdfa 88bc
00000010: 3b98 423d dd60 67bd f112 75bb b104 a8bc
00000020: a29c f4bd dbb7 a63c f73c e4bd fe82 2ebd
00000030: 2d77 743d a27e da3d b6fe 253e 69bb 473c
00000040: bbba 90be 6818 023d 3cc5 15bd 2a8e b83d
00000050: 8244 133f ba80 6fbd 9e35 bcbe 783a 293d
00000060: 77e7 2fbe 50ce f6bd 382d cb3c 2002 88bd
00000070: 5b71 7ebd ddd4 30be 995d 06be 7276 9f3d
00000080: 777f 953d 50b3 063c adef 2ebe 67ac af3e
00000090: fcba a8bd 40ff 98bc 205a 1ebd 01e8 12bd
000000a0: 4eb8 433e 730e bdbe 567c e2be 09d3 09be
000000b0: 31a7 08be 04d2 b03d ac2d fcbd 0d22 92bd
000000c0: 65ed bfbd c859 98bd 0b62 2a3d a075 47bc
000000d0: 9bdb e1bc afa7 94bc 4b19 fdbd 8070 2f3d
000000e0: ee50 aebd 389d 503e fa7d 4bbe 24de ddbc
000000f0: 16f9 d33e a27e 54be b6ed 393d f920 b63e
00000100: ff18 0c3e bb07 213e bd66 573d 955b 753d
00000110: d5f0 943e 7090 5bbd af0f 143d 1370 8bbc
00000120: e0f1 03be da99 333e 956f e83c f268 a73d
00000130: 6831 65bd 032f 5c3d 10c4 79bd 23ae 383d
00000140: 2a2c 283d c31a 9c3c 7bb2 bcbd 5b3c febd
00000150: 9694 02be 5577 d43c 4f87 05be 0695 033b
00000160: b323 0f3e efc5 1cbe 243c f73d fd38 d1bd
00000170: 2dc6 45bd 5d87 64be 129b f0bd f504 343e
00000180: 50c9 533d 30ff ec3c 0fcb 8a3e f5b2 54be
00000190: 45d1 2d3d 1e82 6cbd 929a 8bbc ab72 0c3e
000001a0: 5397 d8bd 97a6 483e bbe8 b33d e96e 9c3c
000001b0: ece7 8abd f2fb 4fbc 92f7 df3c 5390 c3bd
000001c0: 56da f3bd 5b7b 00bc 403b f63c cd21 81bd
000001d0: f142 1a3e 8d7d 053c d78b 88be 734c 4fbc
000001e0: 4e62 a23d b874 a0bc 9c03 0d3e 676e 38bc
000001f0: a32b 72be 7265 90bd cdb6 7cbe 6e58 de3d
00000200: 859e ce3d b755 c3bd 2b65 ffbd 7ca6 e23c
00000210: 4cfa f33b 4782 b43d cd7a 563d 8c8c f8bd
00000220: c466 b3bc 6ecb 35bd dd12 fabd 0115 ac3d
00000230: da59 1abe 6bd8 593b 9370 c8bd 93c0 933d
00000240: 4bb2 88bc d1dc 083e 7d00 133c e1bb 0e3e
00000250: c598 9e3c ee68 e2bc f6e0 003d 61bf db3c
00000260: bf37 ea3d 7ffb 1e3d aa65 bb3d 8f4b ce3d
00000270: 2710 823d 8a4e 713e ac9c aa3c 5893 8e3d
00000280: c711 3ebd 5586 c6bd 25ca 2fbc baf8 f03d
00000290: cd2f 203d 025a d4bd d68f c3bd 69cc 893d
000002a0: 7bd3 31bb 8613 32bd 20bc 983b 1e89 89bd
000002b0: f17b 96bc c874 bfbb dd92 603d 136c 353d
000002c0: b45d 3bbd 6c1d 2d3d 38e1 bdbd 4dfb 61bd
000002d0: 1dde a23c 5ba5 743d 1d69 013e 0e5a 3d3b
000002e0: 0c06 9abd 6858 f73d 7f00 e2bd 4a35 1abd
000002f0: ad71 723c eab0 c7bd e8f9 2b3e f6e8 353e
00000300: 9e8b f6bd 1d08 c1bd ac27 643e 1cd8 01be
00000310: 0c2e 24bf c462 fabc e985 00be 2326 52bc
00000320: 8e30 cdbc 2ab7 d5bc 17cf 3a3d f25d d7bc
00000330: 84b0 88bd 064e 2d3d 6436 85be f324 4b3c
00000340: 86b0 0f3d 971b 9cbc cf30 453d 98f2 d43d
00000350: a35e ca3c cb2c e8bd e708 e5bc 4d0f 3d3c
00000360: d715 15be ae28 f2bd b157 69be 2a36 c33d
00000370: c3d5 763e fcd1 253e 0c42 9c3d ad73 e5bc
00000380: 9769 1d3e 3af4 2e3b f1d2 39be 2d19 ce3d
00000390: da47 63bd 5927 ae3d 260f 02be 9527 e73c
000003a0: b8e0 993d 84c1 c13e 1829 bfbd acd3 e23b
000003b0: 7050 b4bd 4ab0 363e 36d3 043e 620e 26be
000003c0: fe4f e73c 64db 81bd 3b7b f93c 1a57 05be
000003d0: 5113 a6be 5bad 82bd 22ae b5bd a9c1 41bd
000003e0: 4df4 2fbc 5f1b 0d3e d1dd db3e ff1b 023e
000003f0: d7ee bb3d 3e89 e7bc 18fe 573d 5b24 03bf
-0.055629954 0.19994758 0.065843105 -0.016721154 0.04750846 -0.05648886 -0.0037395323 -0.02051005
-0.11943938 0.020351341 -0.111444406 -0.042605393 0.059683967 0.106686845 0.16210446 0.012190678
-0.28267464 0.031761557 -0.03656505 0.09011491 0.5752641 -0.058472373 -0.36759657 0.041315526
-0.1717814 -0.1205107 0.024801835 -0.0664103 -0.062119823 -0.17268701 -0.13121642 0.077862635
0.072997026 0.008221462 -0.17083617 0.3431122 -0.082387894 -0.0186764 -0.03866017 -0.035865787
0.19113275 -0.36925086 -0.44235486 -0.1345941 -0.13345028 0.08633807 -0.12313399 -0.07135401
-0.09371451 -0.074389994 0.041597407 -0.01217404 -0.027570536 -0.018146364 -0.1235834 0.042831898
-0.0851153 0.20372474 -0.19872275 -0.027083464 0.41400975 -0.20751432 0.045392714 0.3557203
0.1368141 0.15725605 0.052588213 0.059901793 0.2908999 -0.053604543 0.03614777 -0.017021215
-0.12885237 0.17539158 0.028373519 0.081743136 -0.05595532 0.05375577 -0.060977995 0.045087945
0.041057743 0.01905573 -0.0921373 -0.12413856 -0.12751994 0.025935808 -0.13039897 0.0020077839
0.13978462 -0.1530988 0.12072018 -0.10215948 -0.0482847 -0.22317262 -0.11748327 0.17580016
0.05170566 0.028930277 0.27108046 -0.20771392 0.042435903 -0.057741277 -0.017041478 0.13715617
-0.10575738 0.19594799 0.08784624 0.019095855 -0.06782517 -0.012694346 0.02733973 -0.09549012
-0.11906879 -0.00784191 0.03005755 -0.06305275 0.15064599 0.008147609 -0.2666919 -0.012652504
0.079289064 -0.019586906 0.13770908 -0.011256791 -0.23649459 -0.07050599 -0.24679108 0.108567104
0.10088829 -0.09537833 -0.12470468 0.027667277 0.007445609 0.08813911 0.052363206 -0.12136182
-0.021899588 -0.04438346 -0.12210629 0.08402444 -0.15073338 0.0033240567 -0.09787097 0.07214465
-0.01668658 0.13365485 0.008972284 0.13938858 0.019359956 -0.027637925 0.03146454 0.026824655
0.11436414 0.038814064 0.0915025 0.100730054 0.06350737 0.23565117 0.02082666 0.06961697
-0.046403673 -0.096935906 -0.010729347 0.11766191 0.039108086 -0.1036873 -0.09548919 0.06728441
-0.0027134109 -0.04347565 0.004661098 -0.06715606 -0.018369647 -0.005842779 0.05482756 0.04429252
-0.04574366 0.042264387 -0.09271473 -0.0551713 0.019881302 0.059728008 0.12637754 0.0028892788
-0.075206846 0.12077409 -0.11035251 -0.037648477 0.01479761 -0.097505406 0.1679455 0.17764649
-0.120383486 -0.094253756 0.22280759 -0.12680095 -0.6413276 -0.030564673 -0.12551083 -0.012826475
-0.025047567 -0.026088316 0.045607653 -0.026289914 -0.06674293 0.042310737 -0.2601806 0.012398946
0.035080455 -0.019056125 0.04814225 0.103978336 0.02470333 -0.113366686 -0.027958347 0.0115392925
-0.14559112 -0.11824165 -0.22787358 0.09531815 0.24104981 0.16193384 0.07629785 -0.02800926
0.1537231 0.0026695863 -0.18146874 0.10063396 -0.055488445 0.08503599 -0.12701091 0.028217116
0.07513565 0.37842953 -0.0933401 0.006922206 -0.08804405 0.17840686 0.12971196 -0.16216424
0.028236385 -0.063406736 0.030454269 -0.13021508 -0.32436612 -0.06380721 -0.08871104 -0.04730383
-0.010739398 0.13779972 0.4294267 0.12705992 0.091764145 -0.028263684 0.052732557 -0.5122735

fc2.bias f4 [128]
00000000: a5d1 2fbe 10af 4f3e 431d 813e 84ee bb3d
00000010: 2fc2 a6bc ad04 d6bd 41bb a1bc 7ef7 ef3d
00000020: 5050 a1bd e80a d1bd 7860 d83c 5ab9 273c
00000030: cffe 0ebb b436 e3bd 834f 613d 38bb 933e
00000040: d1f5 813e cea9 c7bd c056 a13e 98b5 ffbd
00000050: 36b5 1cbe c587 2e3c 15ca 0dbe dd19 4dbd
00000060: 56fc 133e 349f 3fbd 761f 18bd c0b2 ac3b
00000070: 85f5 183e 5f3a d2bd ce1c e5bd a6eb 4ebc
00000080: 8180 9bbd e2e3 38bc 15b8 f6bd 6dd2 52bd
00000090: 87b9 8fbd f1af 903e 710b 903e a025 c43c
000000a0: 1689 d6bd 217a 0aba 0e89 8d3d 573a 33bd
000000b0: 390f 983e ae5f 6ebd 4c73 49bd 1c90 653e
000000c0: 96e0 1bbe 2ac8 dfbc 428f ac3d f084 f5bd
000000d0: 1788 f63d d147 603e b1dd 253e a702 253e
000000e0: 3b3b 9abd 8a43 8d3c 034b a53e 4082 183d
000000f0: 91c5 2bbe a299 77bd 7522 49bd 34ef 553d
00000100: 9946 8c3d 5d5b 3f3e c864 78bd 8202 0abe
00000110: 0913 3cbd 9fe4 713e d01c c1bd 48ea c3bd
00000120: 7569 883d 465b c2bc 3e80 233e 0cbb 6b3d
00000130: ba28 5dbd c9a6 153a dc99 7b3d 57d5 23bd
00000140: dced ad3d cfb8 243e 9245 613d 5b2a 1cbe
00000150: 71c3 96bd 60e0 993e 7a9d 033d ecf3 8a3d
00000160: 3e7c 4abd bbfd 2cbb 3188 0ebd 59b4 0c3e
00000170: 0bc9 e53d 09fe a5bd a3b1 a83d 5733 f93d
00000180: dddb c6bd 9d49 ccbd e893 f53c f2fd 493d
00000190: 90ed 213e b3ee 0d3e 361e c83d 6da3 c83d
000001a0: 4f85 a33e b180 753e 322a ab3d 21bb 80bd
000001b0: d36e 4abd 76e4 85bc 50c6 053e 24a6 a9bd
000001c0: b573 97bc fd60 ad3d 99c5 d3bd 0587 83bd
000001d0: 222d 963d ca88 b6bd 4509 f63c 56a1 ac3d
000001e0: d94e a3bc e5f8 1cbe a1b0 a5b9 006e 8d3d
000001f0: fe8d 89bc 6a51 4ebd 54fc 7bbd b203 35be
-0.17169817 0.20281625 0.25217637 0.091763526 -0.020356266 -0.104501106 -0.01974261 0.11717127
-0.078766465 -0.10207158 0.026413187 0.010237062 -0.0021819358 -0.11094418 0.05500747 0.28853774
0.25382856 -0.097491845 0.31511497 -0.12485808 -0.15303501 0.010652487 -0.1384662 -0.050073493
0.14451727 -0.046782687 -0.03713938 0.005270332 0.14937408 -0.1026504 -0.11187135 -0.012629425
-0.075928695 -0.0112848 -0.120468296 -0.05147021 -0.070178084 0.28259233 0.2813373 0.023943722
-0.10475366 -0.0005282481 0.06910907 -0.04375681 0.29699114 -0.058196716 -0.04918222 0.22418255
-0.15222391 -0.027317125 0.08425762 -0.119882464 0.12037676 0.21902396 0.1619785 0.16114293
-0.075308286 0.01724412 0.32283792 0.03723359 -0.16774584 -0.06044925 -0.049105126 0.052230075
0.06849403 0.18687196 -0.060642987 -0.13477519 -0.04591659 0.23622368 -0.09429324 -0.0956617
0.06660739 -0.023725163 0.1596689 0.05755143 -0.053993918 0.0005708752 0.06142603 -0.03999838
0.08492634 0.16086124 0.054997988 -0.15250532 -0.07361496 0.30053997 0.032132603 0.06784806
-0.049434893 -0.0026396352 -0.03479785 0.13740672 0.112199865 -0.08105094 0.082370065 0.121679954
-0.09709904 -0.09974978 0.029977754 0.049314447 0.15813279 0.13860588 0.09771387 0.09796796
0.31937644 0.23974873 0.083576575 -0.06285692 -0.049422096 -0.01634429 0.13063931 -0.08283642
-0.01848779 0.08465765 -0.10340423 -0.06422237 0.07332827 -0.08912809 0.030033717 0.0842921
-0.019935058 -0.1532932 -0.0003160285 0.069057465 -0.01679134 -0.05037061 -0.061519936 -0.17677191

fc3.weight f4 [4, 128]
00000000: 81e4 9cbe c2a6 ea3d 5d09 683d b879 023e
00000010: cdfb 483c 0e5f 0e3e 86ab f4bd 03d4 913c
00000020: fbd3 a13c b177 81bd 290c e73e 0df3 673d
00000030: ca7e 083e 29fa 0f3e e29e 6b3d d485 e63d
00000040: fe89 0d3e 0392 92bd 1300 af3d f9c7 3cbe
00000050: e319 573b 1842 1e3e 1da5 d2bd e66d a83d
00000060: 189a 5a3e 45ef e3be 07c6 ff3d 63f4 7e3d
00000070: 78ea 173d cf28 e43c a6b6 e7bd b5a5 893e
00000080: 5e4e a0be 5ac8 923a f61c 58bd b197 72be
00000090: aa7d c23d 1f59 073e 0d8a d53d 8d3b ddbd
000000a0: 5b77 25be dff2 9b3e 034f aa3d 4e7d 3f3e
000000b0: 8366 dc3d a6ae 6c3e e5af 3c3e 585d d23d
000000c0: f6b0 823e df38 83bc c16f a23e e551 10be
000000d0: c33f ef3d 14c3 123e 36e9 61be 6d5e c33d
000000e0: 5569 a3bd 1763 0b3e 863d 923d d895 bc3d
000000f0: b2ac 0dbe 09b6 913e a89d 2ebe 2bb6 0b3e
00000100: d9ba b63e 534a b33d 6b58 83be d5f7 8a3e
00000110: bff0 0c3f ce95 293d 36d6 303e 4841 403e
00000120: 324e 063e 7c9b 0fbe b8ca 1b3e 1e1b 8e3d
00000130: 653f 1bbd e815 313e c868 f23a 99d9 45bd
00000140: 6ff6 ea3d 0d1d 253e 3d99 833d c6de debd
00000150: 65b2 05be fe4a 063e 3dc9 163e 64a0 593e
00000160: 7872 203e f428 5b3c 0756 28bd 8925 0c3e
00000170: dd5c 6c3c 5ae7 143f 4669 a83d 6b99 af3d
00000180: c4ea b53e c8cc 71bd 153c f53c 1c4d 203d
00000190: c489 ff3d 3d55 9f3d 66ec 813e 35f2 8bbb
000001a0: 877f 0d3e 8fdd 993d 2991 523e 5be0 a13d
000001b0: fd0a 563e f5bd cbbc b80d 093d f008 2abe
000001c0: afd5 073e ee57 c73d 017c c13c 8d1e 453e
000001d0: adc0 583e 274f 1fbe 5d08 0b3d 6c00 823d
000001e0: 5d90 583d 6462 4fbe 27d3 213c c618 af3e
000001f0: 17ee 70bd b70c 20be 1bdf 26be 7b20 3ebe
00000200: 6185 48be 4a40 f63d 672d 563d 8b7e 0f3d
00000210: 71ba 7c3e ae98 bd3d ca3d 1bbe e953 203d
00000220: 6956 c83d 67a0 28bd 0163 fb3e 0d6f 0abc
00000230: 9493 5d3e f4ab 0f3e af0b 793e 37de a93d
00000240: 2cf0 f23d c5bd 5cbe 0fa8 cf3d b445 8abe
00000250: 7fe2 183d 17f1 113e fdd9 55bd a50f 2ebd
00000260: 2b5e 223e 0106 973d 71a7 9a3d 371f 113e
00000270: 154c c03d 1f79 863d 24a4 97be fb79 123e
00000280: cb47 91bd 1949 fbbd 7da2 53bd af4e c63d
00000290: 2db1 793e 158d 113e 4859 273e 585e 1ebd
000002a0: ae45 513d 73be 0b3e 9d6a ab3d 70b9 023e
000002b0: b702 933d 83f9 0b3e b4ae 493e af3e d93d
000002c0: a169 d83e 10e7 3c3e 154b c03e 2309 0dbc
000002d0: 691d 853d d971 083d 4a37 063d 3631 dc3c
000002e0: f004 bcbd 5d3b 013e b26c f43d e778 1d3e
000002f0: c07f 68be 619f e13e 8159 2abe 5c38 153e
00000300: b341 303d 39ba d63d 5c64 0bbe c834 2cbe
00000310: df78 e73e c274 303d 02f3 3d3e 33d4 763e
00000320: 4991 ea3d 293c 9d3b f046 6f3e 5ef2 e83c
00000330: f665 55bd 5d02 613e ee0e d93c 324e 8fbe
00000340: e2b8 743e 9606 1b3e b97d 87bc 112c 88bd
00000350: c1b2 c4bd 8634 f93d 2c8c e63d c82e 3e3e
00000360: 2d81 f73d 1036 f23d f764 a4bd 5adc fd3d
00000370: af56 a43d 1cef bd3e c342 a13c 72fa cd3d
00000380: dc86 8b3e c7a6 52bd 5445 d73d 344f 363d
00000390: a136 9b3d 8e74 f53c 1013 ab3e 07c0 e73d
000003a0: 511d 003e f36e 8a3d 6f19 4a3e 0c71 1e3c
000003b0: b1a8 8b3e 8eff f7be 58fa 363d 2690 493d
000003c0: 2d8a 943c bed8 0b3d 4527 3e3d 46f4 2f3d
000003d0: d9ce 12bd 83f1 1eba 3072 f13d 89e3 a83c
000003e0: 7c6f 3e3e e0fa 06be ce58 d83d a7de 743e
000003f0: 0fdd 73bd 045e c2bd e9b2 243b ad5a c4bd
-0.30643085 0.11457588 0.056649555 0.12741745 0.012267065 0.13903448 -0.11946778 0.01780129
0.0197544 -0.063216574 0.45126465 0.056628276 0.13329616 0.14060272 0.05752457 0.112559944
0.13822171 -0.07156756 0.08544936 -0.18435659 0.0032821826 0.154549 -0.10285399 0.082240865
0.21347845 -0.44518486 0.124889426 0.062244784 0.03708884 0.02785149 -0.11314134 0.26884237
-0.3130979 0.0011198625 -0.052761994 -0.23690678 0.09496625 0.13217591 0.10426722 -0.10802374
-0.16158812 0.30458733 0.083158515 0.18700144 0.1076174 0.23113498 0.18426473 0.1027171
0.25525635 -0.01601833 0.31725886 -0.1409374 0.116820835 0.14332229 -0.22061619 0.09539495
-0.07979075 0.13612019 0.07140641 0.09208268 -0.1383541 0.28459194 -0.17052329 0.1364371
0.35689428 0.087544106 -0.25653395 0.27142206 0.5505485 0.04140263 0.17269215 0.18774903
0.13115767 -0.14024156 0.1521405 0.06938766 -0.037902255 0.17293513 0.0018494362 -0.04830322
0.11472785 0.16124363 0.06425712 -0.108823344 -0.13056333 0.13114545 0.14725204 0.2125259
0.15668666 0.013376463 -0.041097667 0.13686194 0.014426437 0.58165514 0.08223204 0.08574184
0.35530674 -0.059033185 0.029935876 0.039136037 0.124774486 0.0777993 0.2537567 -0.0042708167
0.13818179 0.07512962 0.20563187 0.079041205 0.20902629 -0.024870852 0.03346035 -0.16604972
0.13265108 0.09733568 0.0236187 0.19249935 0.2116725 -0.15557538 0.033943523 0.06347737
0.05287205 -0.20252377 0.009877003 0.34198588 -0.05882081 -0.1562985 -0.16296045 -0.18567078
-0.1958213 0.12023981 0.052289393 0.03503279 0.24680497 0.09257637 -0.1516029 0.039142523
0.097821064 -0.041168597 0.4909897 -0.008449328 0.21638328 0.14030439 0.24320863 0.08294337
0.118622154 -0.21556766 0.101394765 -0.27006304 0.03732538 0.14252125 -0.052209843 -0.04249539
0.15856235 0.07374192 0.07551468 0.14172064 0.093895115 0.06566071 -0.29617417 0.14304344
-0.070937715 -0.12269802 -0.051668633 0.096829765 0.24383993 0.14213975 0.16342652 -0.038664192
0.051091842 0.1364687 0.08369944 0.12766051 0.07178252 0.136694 0.1969555 0.10607659
0.42268088 0.18447518 0.37557283 -0.008608135 0.0649975 0.0333117 0.03276757 0.026878934
-0.09180629 0.12620302 0.119347945 0.15378152 -0.22704983 0.4406691 -0.16635706 0.1457228
0.043031406 0.10484738 -0.13612503 -0.1681701 0.45209405 0.0430801 0.18549731 0.24104385
0.11453492 0.0047984314 0.23366904 0.028435882 -0.05209919 0.21973558 0.026496377 -0.27989346
0.23898652 0.15139231 -0.016539441 -0.0664903 -0.09604407 0.12168221 0.112572044 0.18572533
0.12085185 0.11826718 -0.0802707 0.12395544 0.08024346 0.37096488 0.019685155 0.10057534
0.27251327 -0.051428583 0.1051127 0.044509128 0.07578779 0.029962804 0.3341298 0.11315923
0.12511183 0.06759443 0.19736265 0.009670507 0.2727714 -0.4843716 0.04467234 0.049209736
0.018132294 0.03414225 0.04642417 0.042957567 -0.035841797 -0.000606321 0.11789358 0.02061631
0.18597215 -0.13181639 0.10563813 0.2391306 -0.05953699 -0.09490588 0.0025131053 -0.095876075

fc3.bias f4 [4]
00000000: 99cd 393e 734a 463e 5204 533e 72a5 7d3e
0.18144836 0.19364338 0.20607117 0.24770144
