models/checkpoint.pth (torch, 29645 bytes, 6 tensors)

fc1.weight f4 [64, 37]
000000 37 0d 0f 3e 14 de 9d bd e9 0f a5 3b f0 4b e4 3d
       0.13969885 -0.07708374 0.005037297 0.111472964
000010 0d 91 10 be 5d d2 fb 3d 84 81 87 bc 95 f3 69 be
       -0.14117832 0.12295983 -0.01654125 -0.22846825
000020 00 84 a9 bc ec 46 73 be c0 91 0b 3e 67 54 7f 3c
       -0.020692825 -0.23757523 0.13629818 0.015584088
000030 8f 6b 19 3e de 01 02 3e e8 5c 86 3d 91 29 06 be
       0.14982437 0.12696025 0.06560689 -0.13101794
000040 04 7d e0 3d f4 41 b4 bd e9 f4 b9 3d 45 a3 af 3d
       0.10961345 -0.08801642 0.09079916 0.08576063
000050 f3 1a 4a bc 41 3c 1c 3e 45 05 7f ba 85 79 81 bd
       -0.012335527 0.1525736 -0.0009728263 -0.06322006
000060 76 fd 5e 3d 0b 30 a6 39 87 bb f3 bd 0e 34 f5 bd
       0.054440938 0.00031697782 -0.119010024 -0.11972819
000070 24 d7 ed bd 87 7c 24 3d 25 85 00 be 3e b3 01 3e
       -0.116133004 0.04015782 -0.1255079 0.12666032
000080 7e 3c 31 3e 59 00 93 bd 2f 2b 83 3d 17 e2 33 bc
       0.17308232 -0.07177801 0.06404721 -0.010979197
000090 a3 01 ef 3d f1 aa dc bc 9a 78 08 be 76 4e a0 3d
       0.11670234 -0.02693698 -0.13327256 0.07827465
0000a0 41 47 fb bd e7 e3 90 3c f1 53 e3 bc 0a 0a ce bd
       -0.1226945 0.017686797 -0.027749987 -0.100605085
0000b0 1d 36 a6 bd 6a 27 18 3d 64 ef 01 be 03 f4 2a be
       -0.0811579 0.037146963 -0.12688977 -0.16694646
0000c0 0e c8 49 3d 61 ad ef bc d6 4d 74 3c 11 04 43 bc
       0.049263053 -0.029257478 0.014911136 -0.011902825
0000d0 39 74 5e bd c2 70 9c bd a5 01 f1 3b ea cc 0e be
       -0.054310057 -0.07638694 0.0073549324 -0.13945356
0000e0 fd fb e5 bd 4a a8 c2 bd c7 26 06 bd 10 c0 2c bd
       -0.112297036 -0.09504755 -0.032751825 -0.042175353
0000f0 4f 99 9e 3d f4 a0 fb 3c d0 45 0a 3d 0e a8 ae bd
       0.07744085 0.030716397 0.033757985 -0.08528148
000100 cb 04 c5 3c 7f 36 83 3c 46 3c f9 3d 42 ee 18 3c
       0.024050137 0.016017197 0.12169699 0.009334149
000110 fa 5e 29 bd 30 cd f0 bd 70 8f 08 be 91 ea 89 bd
       -0.041350342 -0.117578864 -0.13335967 -0.06734193
000120 04 51 68 3d 01 cb f2 bd a3 14 6a bd 05 7b 03 be
       0.056717888 -0.11855126 -0.057148587 -0.12839897
000130 30 59 05 3e 82 e4 10 3e 3b 39 9b bd f9 f0 63 3c
       0.13022304 0.14149669 -0.07579275 0.013912433
000140 00 d3 a1 bd dd 22 39 3d 04 97 e7 bd a4 83 98 bd
       -0.07901573 0.045199264 -0.11308101 -0.074469835
000150 20 28 74 bd db f7 0e be f4 7f c1 3c c6 c7 34 bd
       -0.05960858 -0.13961737 0.023620583 -0.04413583
000160 73 44 f0 bd 48 39 a4 bb 40 57 6a bd 02 f1 7d 3d
       -0.11731806 -0.0050117113 -0.057212114 0.06199742
000170 6d 3c da 3d 2e c8 b9 bd 34 ef 46 bd d8 e2 80 bd
       0.106560566 -0.09071384 -0.048567966 -0.06293267
000180 a9 58 1e be 98 6b 17 be 22 7d e1 3d ef 42 23 3c
       -0.15463509 -0.14787138 0.11010195 0.009964689
000190 a1 37 fb bd e3 36 18 3e ba c2 3a be 8f fe fb 3d
       -0.1226647 0.14864688 -0.18238345 0.123044126
0001a0 50 b7 29 be a2 f8 15 be 63 20 bc 3d 46 fa 1a bc
       -0.16573834 -0.14645627 0.09185865 -0.009459084
0001b0 44 22 14 bd a9 0d ac bd c6 e1 71 3d c9 a5 0f 3e
       -0.03616549 -0.08401043 0.059053205 0.14028086
0001c0 ab b3 8e 3d c3 bd 1b 3e cd 98 e9 bd 1a e5 20 be
       0.06967863 0.15209107 -0.114060976 -0.15712395
0001d0 0e 26 31 bd 8a 99 f2 bc 3d 1b 88 3c 4d 6f e5 bc
       -0.043249182 -0.029614229 0.01661455 -0.028007174
0001e0 62 c1 29 bc 99 df bd bd 29 d9 bf bc fd 6b b6 3a
       -0.010361047 -0.092711635 -0.02341898 0.0013917681
0001f0 23 f6 55 3d 88 b7 dc bd e7 d9 1e 3e a4 ce 89 bb
       0.052236687 -0.10777193 0.1551281 -0.0042055417
000200 a8 cf 3e 3d 94 b6 f9 3d a1 88 27 3d ba 29 2e 3d
       0.046584755 0.12193027 0.040901784 0.042520262
000210 a6 45 d4 bc 9c ae df bd 0c a0 85 3d 4e 11 0d 3e
       -0.025912117 -0.10921976 0.06524667 0.13776132
000220 9e e5 12 3e cc b0 94 3c 7a 05 f5 3d b8 4a c4 bd
       0.14345405 0.01815071 0.11963935 -0.09584564
000230 a4 99 d2 bd 34 9a 85 bd 8c 20 7f bd 36 45 61 bc
       -0.10283211 -0.065235525 -0.0622869 -0.013749411
000240 54 24 35 be 9f 08 e5 3d 04 a6 32 be 66 7d 3d bd
       -0.1768964 0.11183285 -0.17446142 -0.046262167
000250 18 59 b3 3d 77 42 38 3d a5 f4 3e bc fa 25 d5 bd
       0.08757228 0.04498526 -0.0116550075 -0.10407634
000260 49 13 b2 3d e1 be 8f 3e 76 3b e2 bc 9d 8c d2 bd
       0.086950846 0.28075317 -0.027616244 -0.10280726
000270 6b 13 89 bd cd b8 a8 be c7 ca ab 3d ea ea b0 3d
       -0.06693157 -0.32953492 0.08388286 0.08638556
000280 6d 8c 3b 3c 21 2b 90 3b 9d cc a4 3d a8 6e 44 3d
       0.011447054 0.0043996726 0.080468394 0.047957093
000290 72 7f 5b 3d ae 27 bc 3d ba a6 10 3e 84 12 c5 bd
       0.05358834 0.09187256 0.14126101 -0.09622672
0002a0 00 f9 d0 bd ad 45 31 3d 3e dc b8 bd d5 b4 f2 bd
       -0.10203743 0.04327934 -0.09026383 -0.11850897
0002b0 11 ee d5 3d 7d 18 a8 3d 88 50 dd 3d fb d5 e1 3d
       0.10445798 0.08207796 0.10806376 0.11027142
0002c0 aa 7c 00 3e 2e c0 b2 bc 33 18 4c 3e 43 f3 78 bc
       0.12547556 -0.021820154 0.19931106 -0.015194717
0002d0 b0 d8 30 bd b8 1d 87 bc 14 11 a6 bd a1 59 b3 3d
       -0.0431754 -0.016493663 -0.08108726 0.0875733
0002e0 2c 51 bb ba 53 aa 5f bc f8 59 cb bd f0 dd 1f be
       -0.0014291159 -0.013651448 -0.099292696 -0.15612006
0002f0 97 ad fe 3c 68 e2 80 bd 4b 33 b6 3d 9d 97 9a 3d
       0.031088633 -0.062931836 0.08896502 0.07548449
000300 b5 0a 07 be 0a e6 0b bd 77 89 41 bc 13 36 05 3e
       -0.13187678 -0.03415493 -0.011812559 0.13008909
000310 50 24 c4 bd c3 95 02 3e 79 ad ce 3d ae 4a 1c bd
       -0.095772386 0.12752442 0.10091681 -0.038157158
000320 75 1c 9b bd eb 2f e4 3d 38 7f 83 bd 90 50 8e bd
       -0.07573787 0.11141952 -0.064207494 -0.0694896
000330 6d 8d ec 3c df 5c 32 be 9b a7 0b bd 14 6d 4c 3d
       0.02887603 -0.1741824 -0.034095388 0.049908713
000340 48 d2 c1 bd d3 b3 bb bc ed 2d 08 be c0 24 97 bd
       -0.09463936 -0.022912895 -0.1329877 -0.073800564
000350 ad 76 92 3d 38 4a 0f bd 6f 1c d5 bd d2 0a 83 3c
       0.07151542 -0.03498289 -0.10405814 0.01599637
000360 a2 d4 3c be 07 7c ed 3d c6 ef 5e 3d ce 10 ba 3c
       -0.18440488 0.11595922 0.054427885 0.022713091
000370 9a 81 d6 bd c0 52 2a 3e b9 1a da bd 4e aa ba 3c
       -0.10473938 0.16633129 -0.10649628 0.022786286
000380 c0 ba c7 bd 8b 38 c9 bd b6 04 73 3d 34 e9 53 3e
       -0.097524166 -0.09825238 0.059330665 0.20694429
000390 72 34 a5 3d c9 fa 1a 3e ff df 99 bc 96 28 59 be
       0.08066644 0.1513473 -0.018783567 -0.21206889
0003a0 f0 fa 74 3d 24 e8 c3 3c fe 1d 87 3d 06 65 55 3d
       0.059809625 0.023914404 0.065975174 0.052098297
0003b0 06 76 02 be 93 68 93 3c 79 69 0e 3e dd 12 13 3e
       -0.12740335 0.0179942 0.13907422 0.14362665
0003c0 ec b1 3d 3e 2b 0d 28 3d 3b 7d 28 3e ab 18 aa 3d
       0.18524903 0.041028183 0.16454022 0.08305486
0003d0 85 f4 83 3d 26 dc 89 3c 65 17 32 bd d4 a0 2f 3e
       0.06443123 0.016828608 -0.043479342 0.17151195
0003e0 2a 8a d0 bd b0 50 04 bc 3e 6d af 3d a9 e2 bc bc
       -0.10182603 -0.008075878 0.08565758 -0.023057299
0003f0 34 84 97 bd f1 d2 81 3c e5 33 03 3e c5 72 b9 bc
       -0.073982626 0.015847655 0.12812765 -0.022637734

fc1.bias f4 [64]
000000 39 82 3d bd a6 9f 31 be 3c b4 e4 bd e7 6a 18 be
       -0.046266768 -0.17346057 -0.111671895 -0.1488453
000010 9e 9e f6 bc 5b 22 a8 3d 02 f9 2d 3e f8 bf 13 3c
       -0.030104931 0.08209678 0.1698952 0.009017937
000020 7f 28 f3 3c 24 2c 13 3e 38 29 64 3d db 6b 53 3e
       0.029682396 0.14372307 0.05570337 0.20646612
000030 dc 78 c9 3c 4b fb 09 be 1e 80 0d be a9 a2 0a be
       0.024593763 -0.13474767 -0.13818404 -0.13538612
000040 04 f2 44 be 8f c2 0a 3e 00 3e 8f 3d 05 7d eb bd
       -0.19232947 0.1355078 0.069942474 -0.11498455
000050 83 ed 1b bd 44 f4 30 bc 32 7e 02 3e 8b da 27 bd
       -0.038068306 -0.010800425 0.12743452 -0.040979903
000060 e1 f9 59 3c 9a e2 04 3e 8d 2d 83 bd 33 28 0c 3c
       0.013304205 0.12977067 -0.064051725 0.008554506
000070 ec 64 e0 3c 76 4e 17 3e fa e4 eb bc 06 49 6e bd
       0.027391873 0.14776024 -0.028795708 -0.05817511
000080 eb 19 af 3d 74 43 80 3c c8 a1 af bd 0f b8 27 3e
       0.08549865 0.015657164 -0.08575779 0.16378807
000090 62 f9 90 3d 04 74 75 3d 2f 1e 53 3e 3a 87 52 bd
       0.07078816 0.059925094 0.20616983 -0.051398493
0000a0 22 86 ed bd 60 4a 19 bd 3a 58 9d bc 21 a6 20 3d
       -0.115978494 -0.037424445 -0.019207109 0.039220933
0000b0 82 25 7f 3e 49 6f 80 bc 1a e0 10 3e e1 ad d2 3c
       0.24916652 -0.015678065 0.14147988 0.025717678
0000c0 b1 05 3b 3e 27 56 2d 3e ee ac 50 3e be 63 23 3e
       0.1826389 0.16927396 0.20378467 0.15956017
0000d0 7b ec f1 bb b0 74 d1 bc a7 0d f3 3d 27 4c 56 3e
       -0.007382927 -0.025568336 0.11867838 0.20927487
0000e0 b7 ea 96 bd a5 9b 83 3c 0c 70 01 be 3d e5 1e bd
       -0.07368987 0.016065428 -0.12640399 -0.038792837
0000f0 f1 36 79 3d 17 51 a9 3d e8 d9 84 bd af 70 3c bd
       0.06084341 0.0826742 -0.06486875 -0.0460059

fc2.weight f4 [64, 64]
000000 13 63 6f bd 74 bd b6 3c 06 60 d2 bd 0c cd 0d bd
       -0.058444094 0.022307135 -0.10272221 -0.034619376
000010 4e 46 6f bd 63 be 27 bd ef f7 c2 3d cc 4b ae bd
       -0.058416657 -0.04095305 0.09519946 -0.08510551
000020 c5 e6 7a 3b 9e 82 8f 3d 8d 3a a2 bd 6d 7e a5 3c
       0.0038284522 0.07007335 -0.07921324 0.020201886
000030 15 71 01 bb 06 5d d0 3d de b3 30 3d 4c bd 2f bd
       -0.001975124 0.10173993 0.043140285 -0.042905137
000040 31 e8 d1 bd 07 f0 01 3e 15 1a 1f bc 73 ff d7 3c
       -0.10249365 0.1268922 -0.009710808 0.026366925
000050 20 01 c2 3d 7d e4 26 3d fc 66 28 bc a4 e1 38 bd
       0.09472871 0.040745247 -0.01027846 -0.045137063
000060 26 d9 8a 3d f9 38 3b 3c 17 38 9e bd 9b 3c 23 3d
       0.06779699 0.011427158 -0.07725542 0.03985272
000070 00 19 c3 3d 1b a2 b1 3d 59 85 85 bd 7f f1 3c 3d
       0.09526253 0.08673497 -0.06519575 0.046128746
000080 20 be 30 bd 9e 1b e3 bb 85 ff af bc 43 d0 2f 3d
       -0.043150067 -0.0069307825 -0.021484146 0.042923223
000090 9c 1c a4 bd ae 52 ca bd 18 ce 4a 3d f3 bc 86 3d
       -0.08013269 -0.09879051 0.049512953 0.06579008
0000a0 ca d0 5b 3d 88 0a 93 3b 83 1a 63 3d 1a 0c 88 3d
       0.053665914 0.0044873394 0.055445205 0.06642933
0000b0 4f 94 89 3c b2 18 47 bb 16 84 1c bd 36 51 ad bd
       0.016794352 -0.003037971 -0.038211904 -0.084627554
0000c0 13 ce 87 bd cd 93 b0 bd cd 99 f0 bd f6 8e 2c 3d
       -0.066311024 -0.08621941 -0.11748085 0.042128526
0000d0 a9 5d 03 3e 4e 4a b3 bd 51 44 89 bd 13 eb 1e 3e
       0.12828697 -0.08754407 -0.067024834 0.15519361
0000e0 0f 8e c8 bd 76 dd 96 bb 5a 30 27 bd 9b af b0 ba
       -0.097927205 -0.004604037 -0.040817596 -0.0013480069
0000f0 07 51 95 3d 41 1c be bd fa 65 93 3d 15 e5 ce 3d
       0.07290845 -0.09282733 0.07197185 0.10102288
000100 7f 36 be 3d 0f ec 70 3d 80 e7 91 bc 05 dc 3f 3d
       0.09287738 0.058818873 -0.017810583 0.046840686
000110 5e e2 bb 3c 26 8b 79 bd 15 71 32 3c 9d 03 d5 3c
       0.022935089 -0.060923718 0.010891219 0.0260027
000120 54 36 83 bd e7 b7 c6 3d 10 dc a8 3d 08 9f 38 3d
       -0.06406847 0.09703045 0.082450986 0.04507354
000130 de aa d2 3d b0 3a ff 3d c1 fe 8d bc cb c2 0f be
       0.102864966 0.124623656 -0.01733339 -0.14039151
000140 e7 34 bd bd 24 51 68 bd d2 50 ce bc 32 58 97 bd
       -0.09238606 -0.056718007 -0.025185023 -0.07389869
000150 94 1d a6 bb 24 db a7 bd f6 3f 94 bd 0d 8a d5 bd
       -0.005069444 -0.08196095 -0.07238762 -0.10426722
000160 65 16 81 bb 12 85 a2 bd e9 1c d3 3d 00 61 8d bd
       -0.003939437 -0.079355374 0.103082485 -0.06903267
000170 42 5f bd 3d f5 30 1d 3d b5 cd dd bd cc b3 b4 3d
       0.092466846 0.038376767 -0.10830251 0.08823356
000180 a2 57 f4 3d 1f df 82 3d 7d 4c a6 3b a5 23 a5 bd
       0.11930777 0.06390213 0.005075036 -0.08063439
000190 ff 98 8a bb c8 fd 25 3c 30 d6 04 3b e4 af e6 3d
       -0.0042296643 0.010131307 0.0020269267 0.11264017
0001a0 c4 b0 56 bd 20 63 8d 3d d9 8d f5 3d 43 77 fb bd
       -0.05241467 0.06903672 0.11989946 -0.12278607
0001b0 fc a1 4e bc 24 14 b7 bc d5 7c c2 3d ad 02 f9 bd
       -0.012611862 -0.022348471 0.09496466 -0.121587135
0001c0 3f ec bf bd d3 15 fc bb aa b2 28 3d b1 2e a5 bb
       -0.09371232 -0.0076930313 0.041186012 -0.0050409664
0001d0 66 da fa bd 82 6a 9c bd 12 19 0e be 07 a4 3a bb
       -0.122486874 -0.07637502 -0.13876751 -0.0028479116
0001e0 22 10 0f 3d 31 90 ab 3d c8 0c 06 be a7 15 10 be
       0.034927495 0.08377112 -0.13090813 -0.1407076
0001f0 61 3c 9d bd 39 f3 c1 bd 7c 9c ad bd a0 52 ed 3c
       -0.07677532 -0.09470219 -0.08477113 0.028970063
000200 0d c9 fe 3d c9 9d 6e bd 2d 33 63 bd f9 63 9a bc
       0.12440691 -0.058255944 -0.055468727 -0.018846499
000210 22 44 31 3e d4 23 a6 3d 1e f9 55 3d 94 45 c1 bd
       0.17311147 0.081123024 0.05223953 -0.09437099
000220 51 51 8c 3d d5 61 54 bc 07 e9 1d bd 12 d8 18 3e
       0.068514474 -0.012962778 -0.03855231 0.14926174
000230 84 ba b8 bd 6e 76 a9 bc 2d b1 0b be eb d8 d3 3d
       -0.0901995 -0.020686354 -0.13641806 0.10344108
000240 eb 1a 6a bd 62 e4 41 3e 7b 8f 81 3d a9 46 07 3e
       -0.057154577 0.18934777 0.06326195 0.13210548
000250 cb 0e 11 bd d1 2e 93 bd 3e 27 a6 3d b0 b5 0f 3e
       -0.0354145 -0.07186664 0.081129536 0.14034152
000260 33 22 a7 3d aa 94 08 3e 93 c6 a3 3d e7 c5 c6 3d
       0.0816082 0.13337961 0.079968594 0.097057156
000270 5f 6e e5 3d 60 34 0c 3e 38 f5 e0 3d 8d 86 51 3d
       0.11202692 0.13691854 0.10984272 0.05115371
000280 c7 a8 8f bd a7 be d4 bd 1a 3f a1 bd fe 8d d8 3d
       -0.070146136 -0.103879265 -0.07873364 0.10573958
000290 09 96 b7 3d 40 43 cf bd 2a d1 31 bc a4 d7 8a 3d
       0.08964164 -0.10120249 -0.010853091 0.067794114
0002a0 c8 0f 28 bd e5 43 7f bc df 79 cf 3c 18 5b 97 bd
       -0.041030675 -0.015580152 0.025326667 -0.07390422
0002b0 5b e2 f2 3c a7 59 28 bd b9 c2 cb 3d ae f6 ad 3c
       0.02964895 -0.041101124 0.0994925 0.02123579
0002c0 72 59 55 bd 1b 06 59 3d 6b ad 62 3c 0c 40 ce bd
       -0.052087255 0.05298434 0.013835291 -0.1007081
0002d0 d4 78 f8 3d 38 af 57 3d 77 d5 4a 3d 7d 23 41 3d
       0.12132421 0.052657336 0.049519982 0.047152985
0002e0 95 1b 50 bd 34 fe d7 3d 3f 88 d3 bd 0d 1c 9e bd
       -0.050807554 0.10546532 -0.10328721 -0.07720194
0002f0 15 3b 36 3c 1c 70 7a bc 04 14 b5 3d 6c 6a 1d 3e
       0.011122485 -0.015285518 0.08841708 0.15372628
000300 5f ee e3 bc a7 7b ae 3d b6 0a 60 3d 96 6e 55 3d
       -0.027823625 0.085196786 0.054697715 0.052107416
000310 09 43 d4 bd 47 6e ed bd b0 07 fe bd aa 56 a2 bd
       -0.103643484 -0.11593299 -0.1240381 -0.07926686
000320 98 5c f8 3c 75 f7 6c 3d 78 5b b7 bc 75 33 b2 3d
       0.03031759 0.05785318 -0.022382483 0.08701221
000330 8b d9 cb bd b9 09 fd bd 49 e8 3a bc 90 df 17 3b
       -0.099536024 -0.1235537 -0.01140792 0.0023174025
000340 0d 52 c9 bd 19 7b a6 bb c6 79 be bd 2e cd b6 3d
       -0.09830103 -0.0050805924 -0.0930057 0.08925854
000350 8c d9 52 bd d6 eb ed bd 3b 04 0b 3d 93 4a 3e bc
       -0.051477 -0.11617248 0.03393958 -0.01161446
000360 50 e5 47 3d 3c ea 18 3d 0c 70 08 be 99 59 0a 3d
       0.048802674 0.03733276 -0.13323992 0.033776853
000370 0f 2d d0 3d 81 97 c0 3c e6 21 c5 3d 48 d0 37 3d
       0.10164844 0.023509743 0.09625606 0.044876367
000380 6d 46 a7 3d 83 68 a8 3d be 93 11 bd 3e dc 7b 3d
       0.081677295 0.08223059 -0.03554129 0.061489336
000390 58 d8 00 3d dc f8 29 3d 40 32 ab ba 08 b2 a1 bd
       0.03145632 0.041497096 -0.001306124 -0.07895285
0003a0 80 a1 44 3d 76 9c aa bd 50 6f 3a 3d db 84 52 bd
       0.04800558 -0.08330624 0.045516312 -0.051396232
0003b0 21 e1 80 3c 8a 72 16 bd a9 38 9b 3d 20 6c a8 bd
       0.01573235 -0.036730327 0.075791664 -0.08223748
0003c0 84 21 b0 3d fc d4 1d be 5e 48 bd 3b c3 ce f9 bd
       0.086001426 -0.15413278 0.005776449 -0.1219764
0003d0 03 db 83 bd ab 86 0f bd 7f d1 cb 3c fb b7 14 3c
       -0.064382575 -0.03504054 0.024880169 0.0090770675
0003e0 72 87 18 bd 81 cd ed 3c 89 b8 7e 3d 10 a3 ae 3d
       -0.037238546 0.029028656 0.062187705 0.085271955
0003f0 d1 84 89 3d 0c dd cf 3d 70 35 ba bc 29 89 e1 bd
       0.06714786 0.10149583 -0.02273056 -0.11012489

fc2.bias f4 [64]
000000 d2 f9 85 bd dc e4 b9 3d 9a 85 82 3d 01 18 eb bc
       -0.0654179 0.090768546 0.06373139 -0.02869797
000010 70 83 f0 3c df 2d 79 bd 33 b4 f7 3d f0 d8 63 3d
       0.02935955 -0.06083476 0.12094917 0.05562681
000020 12 7f c2 39 28 b5 13 3e 21 a4 4d 3d fa 90 d1 bd
       0.00037097238 0.14424574 0.050205354 -0.1023273
000030 ef 05 b9 bd c4 4f 34 bd d9 22 f5 3d 01 5c 8b bd
       -0.09034335 -0.044021383 0.11969537 -0.06804658
000040 9f ec 07 3e 29 5f e1 bc c4 a7 9b 3d 76 69 0b bd
       0.13273858 -0.027511196 0.07600358 -0.034036122
000050 ce fa c9 3d c6 c4 03 be 41 84 a3 3d de ee c7 bd
       0.0986229 -0.12868032 0.0798421 -0.09762357
000060 83 d0 b2 3d ff 09 88 bd cd 4e 1d bd 98 77 7f bd
       0.08731177 -0.066425316 -0.03840523 -0.062369913
000070 e5 c0 37 3e 04 b1 ab 3d 66 ce ca 3c 44 f3 cc bd
       0.17944677 0.083833724 0.024756622 -0.10007337
000080 70 28 f8 3d ae 4f 56 bd 82 ad a6 bd cd ef a5 3d
       0.12117088 -0.052322082 -0.08138563 0.08102379
000090 a8 10 e9 bc a0 3f 85 bd e1 3b ed 3c d1 17 93 bd
       -0.028450325 -0.06506276 0.028959217 -0.07182277
0000a0 0c bd cc bd a6 6f b1 bb 0f 0e 8f 3d 84 ba 61 3c
       -0.09996995 -0.005414921 0.06985103 0.013777379
0000b0 ed a8 42 3d 16 77 3a 3e 17 db f2 bd 50 31 dd 3d
       0.04752438 0.1820949 -0.11858194 0.10800421
0000c0 bc f1 d2 bc 46 3f 8f bd 25 4f 28 3c d3 de 4e 3e
       -0.025750034 -0.0699449 0.010272776 0.20202188
0000d0 83 eb b1 3d 27 93 6a bc 35 f9 da 3d 3c 88 b2 bd
       0.086874984 -0.01431731 0.10692064 -0.08717391
0000e0 3c 06 02 3e 55 fb c4 3d 28 d2 81 3d 3e af 10 bd
       0.1269769 0.0961825 0.06338912 -0.035323374
0000f0 72 3e cb 3d 22 fe 03 3d b9 3c ad 3d 82 e1 7a bd
       0.0992402 0.03222478 0.084588476 -0.061250217

fc3.weight f4 [4, 64]
000000 88 c2 07 3e 3c d4 f6 bc 76 9d 1a 3e d8 cf d7 bd
       0.13257802 -0.030130498 0.15099129 -0.1053769
000010 ea a8 b0 bd b9 46 a0 3d a4 47 93 3d a2 0c a3 bd
       -0.08625968 0.07825989 0.07191399 -0.07961394
000020 0a 1b 92 3c 00 d7 4c 3d a1 bc 48 bd b8 51 80 3d
       0.017835159 0.050009727 -0.049008016 0.062655866
000030 be b5 c5 bd 11 20 51 bd 94 88 08 bd eb 85 95 3a
       -0.09653805 -0.05105597 -0.033333376 0.0011407709
000040 fe 4b 97 bd 6c a7 6c bd 8d de 55 3e 6a 14 99 bd
       -0.07387541 -0.057776853 0.20885678 -0.07474597
000050 65 51 d4 3d d8 0a 09 bc 30 ff 4f 3d 31 96 21 3d
       0.10367087 -0.008364402 0.050780475 0.039449874
000060 12 d1 67 bd d0 41 1d 3e 83 8d c2 bd af 32 30 3e
       -0.05659587 0.15357137 -0.094996475 0.17206834
000070 26 5d 19 3e 41 e1 a5 bd c4 3a e0 3d 36 9e 12 be
       0.1497694 -0.080996044 0.10948709 -0.14318165
000080 fe e1 99 3d 3a 35 f3 bd 82 a2 18 3e a4 2c 36 3d
       0.07513808 -0.118753865 0.14905742 0.044476166
000090 b1 2a f3 3d 98 31 91 3d 3f 91 00 3e a9 93 0b bd
       0.11873377 0.070895374 0.12555407 -0.034076367
0000a0 61 b2 01 bd d5 31 13 3e fe f4 12 3e cb 64 52 bc
       -0.031664256 0.14374478 0.1435127 -0.012841414
0000b0 77 70 17 3e a8 cd d2 3b 5a 8f 88 bd c8 b0 a5 bd
       0.14788996 0.0064332075 -0.06667967 -0.08090359
0000c0 25 af 00 3e 44 03 06 bc 2e 47 a6 bd f4 9b 42 3e
       0.12566812 -0.0081794895 -0.08119045 0.19004804
0000d0 de c8 1f 3e b4 1f 66 bd 12 87 92 3d c3 07 f1 bd
       0.15603969 -0.05618258 0.07154669 -0.117690586
0000e0 65 e8 88 3d ed ca 0d 3e e1 ab 7f 3d 3a 1c 83 bd
       0.06684951 0.13846941 0.062419776 -0.06401868
0000f0 d5 f3 d0 3d 89 a8 54 bc c0 fb 8d bd 0f d1 6e bd
       0.10202757 -0.012979635 -0.06932783 -0.058304843
000100 d6 ed 36 bd c5 46 87 bd 0d 4a ab bb 0f 8f 5e bd
       -0.04466041 -0.06605295 -0.0052273334 -0.05433565
000110 6d 42 8d bc a0 83 48 3e 5c a9 04 3e f1 22 99 3c
       -0.017243588 0.19581461 0.1295523 0.01869342
000120 19 1d 97 bd 1f 5e 1f 3e ea ea 8b 3c 94 e7 b7 3d
       -0.07378597 0.15563248 0.01707979 0.08979717
000130 c6 58 bd bd 4b 95 cf bd 22 7e cc 3d 96 00 74 3d
       -0.09245448 -0.10135897 0.099849954 0.05957087
000140 22 eb f1 3d 41 e5 99 bd e2 e6 67 3c 0c 61 ca b9
       0.11812426 -0.0751443 0.014154168 -0.00038600748
000150 db 93 18 3d cb 8b 62 3c 5d f7 7d 3d df 38 6a bd
       0.03725038 0.013827275 0.062003482 -0.057183143
000160 78 3a c4 3c bf e4 54 3d 83 5e ce bd 1f 43 a1 bb
       0.023953661 0.05197596 -0.100766204 -0.0049213315
000170 1f 81 fb 3d 14 48 be bd 05 bc cf 3d ee 2c 6c bd
       0.12280487 -0.092910916 0.10143284 -0.057660036
000180 3c 40 90 3d 22 b7 f8 bb 14 51 7f bc 12 5e 5c 3d
       0.07043502 -0.0075901905 -0.015583295 0.05380065
000190 05 e4 79 3d 81 e2 04 be c7 07 15 3e 0a 85 53 3c
       0.061008472 -0.1297703 0.14553748 0.012910137
0001a0 e6 75 cf bd b4 79 bc 3d c2 5f 2e 3d d8 70 0f be
       -0.10129909 0.092029005 0.04257179 -0.1400789
0001b0 ac bb b4 3d dc d2 4b 3d 15 20 60 bd cf 2d 06 3e
       0.08824858 0.049761638 -0.054718096 0.13103412
0001c0 e2 2f 32 bd 49 88 45 3d d6 12 0b 3d 20 65 37 3d
       -0.043502696 0.048225675 0.03395351 0.044774175
0001d0 e4 1e a1 3d 06 52 86 3c 63 25 f9 3c 6b 4e 56 bd
       0.0786722 0.016396534 0.030413335 -0.05232088
0001e0 1d 3f d1 3d 16 62 09 3e c2 b7 c6 bb e3 c4 a5 bd
       0.10217116 0.13416323 -0.006064386 -0.08094194
0001f0 3d ce 1d 3e 3e d7 12 bd 5c 6e aa 3d cb cf 76 bd
       0.15410705 -0.035849802 0.08321831 -0.06025676
000200 c1 0b e0 3d 51 30 ba 3d ef f9 9f 3d 6c c6 da bd
       0.10939742 0.09091247 0.07811343 -0.10682377
000210 f1 d0 2c bd 35 fe 14 3e 13 da 0f 3e 90 8c 01 bd
       -0.04219145 0.14550097 0.14048032 -0.03162819
000220 45 5b ee bd bb dc 73 3d 2b cd db 3d 6f 05 88 bc
       -0.11638502 0.059536677 0.10732492 -0.016604153
000230 0a ad 81 bb cd af 57 bc 27 cd 1b 3e 15 31 9f bd
       -0.0039573954 -0.013164473 0.15214978 -0.077730335
000240 ee 62 b4 3d a6 93 ad 3d 71 b1 23 3e 86 4b 26 3c
       0.08807932 0.08475427 0.15985657 0.010149842
000250 8e 68 89 3c e4 79 e1 bd f6 64 3f bc 74 dc 69 bd
       0.016773488 -0.11009577 -0.011681786 -0.057095006
000260 94 09 da 3b e8 a5 e8 3d 26 94 c0 bd c6 03 00 3e
       0.006653974 0.11359769 -0.09403257 0.1250144
000270 12 07 32 3e b2 58 13 bd f7 f7 09 3e 8f 4c 8b 3c
       0.1738551 -0.03597326 0.13473497 0.01700428
000280 d5 96 7a 3d 84 94 1c bd b1 88 d5 bd 59 6d 4d 3d
       0.061179 -0.038227573 -0.104264624 0.05015311
000290 78 ee e7 bc 85 3a 5a 3d a9 9b 1a 3d 39 65 f8 3d
       -0.028311953 0.053278465 0.037746105 0.12128682
0002a0 db 95 62 bd 26 16 26 3c dc 2e 3f bd 85 31 0a be
       -0.055318695 0.010137117 -0.046675548 -0.13495453
0002b0 70 1e f3 3d 79 ce c7 3d c5 ff f6 bd 79 bc 1b 3e
       0.1187104 0.097561784 -0.12060503 0.15208615
0002c0 73 f1 c6 bc 31 cc 7e 3d 36 42 46 3c b1 cd 90 3c
       -0.024285054 0.06220645 0.012100747 0.017676206
0002d0 2b b7 de 3d c1 ab 8c 3d d9 b1 e3 3d a4 59 0c bd
       0.1087478 0.06868697 0.11117906 -0.034265175
0002e0 06 fe bd 3d dc 68 c7 bc 7a 75 e3 bb 77 ec a6 3d
       0.09276967 -0.024341993 -0.0069414945 0.08150571
0002f0 fe 18 6f 3c 5c 23 ba 3d d4 af ce 3d 8e b4 b4 bd
       0.014593361 0.090887755 0.1009213 -0.088235006
000300 39 0e 19 3d 14 50 10 bd f9 87 07 3d 36 35 a3 3c
       0.03736708 -0.03523262 0.033088658 0.019922834
000310 25 4c 20 3d dc a7 6f bd ab 33 67 bd 5c 37 07 bc
       0.039135117 -0.058509693 -0.05644576 -0.008252945
000320 fc d4 a6 bd 78 ff 53 3c 73 8d 20 3e 4e 68 8a bb
       -0.08146092 0.012939326 0.15678959 -0.00422386
000330 8d 6f ce 3d 2a 1e d1 3d 02 92 8e 3d a1 5e 02 3e
       0.100798704 0.102108315 0.069614425 0.1273141
000340 f9 6a 85 3d 1a ae 35 3d 5a 11 36 3d 05 78 81 bd
       0.06514544 0.04435549 0.04445014 -0.0632172
000350 0f 24 66 3d 60 06 02 be 3d a4 82 3d 68 cc 52 3d
       0.056186732 -0.12697744 0.06378982 0.05146447
000360 ba 07 c3 bc 32 4f 7d bd 08 e4 02 3e 59 54 11 3e
       -0.023807395 -0.061843105 0.127823 0.14192332
000370 d5 77 95 bb dc 6b d2 3d 7b de 27 3d 0f 1c c9 bd
       -0.004561404 0.10274479 0.04098366 -0.09819805
000380 d6 94 50 3d e0 01 27 3d 79 dd ac 3d d1 3d 78 3c
       0.05092319 0.040773273 0.0844068 0.015151457
000390 e6 16 10 3e eb 32 af bd 94 4e 19 3e a8 bd 4c bd
       0.14071235 -0.08554634 0.14971381 -0.049985558
0003a0 8d 78 2c bd 83 81 e9 3c ec a1 1a 3e 38 b0 56 bd
       -0.042107154 0.028504139 0.15100831 -0.05241415
0003b0 c4 45 26 3e 37 9d 80 3c 27 96 c3 bd 53 ee 15 3e
       0.16237551 0.015699966 -0.09550124 0.14641695
0003c0 42 d3 13 bd 6a de 05 3e 22 7b 60 bd 11 68 f8 3d
       -0.036090143 0.13073125 -0.05480493 0.12129224
0003d0 91 80 b7 3c 06 59 9d 3d cc a3 cb bb de c6 af bd
       0.022400172 0.076829955 -0.0062145945 -0.08582853
0003e0 be 1c a3 bb 95 36 af 3d 3a 05 bd 3d 18 ed 5a bd
       -0.0049777916 0.085553326 0.092295125 -0.053448766
0003f0 f7 57 89 3d 3f 6a ae 3c 9d 10 47 3e 95 c1 89 3c
       0.06706231 0.021290896 0.19439931 0.01681594

fc3.bias f4 [4]
000000 f3 a2 6d 3c c4 e1 a1 3d 24 43 1b 3e b4 9d e1 3d
       0.014504182 0.079043895 0.15162331 0.110164076
