models/model.pt (torch, 47309 bytes, 6 tensors)

fc1.weight f4 [64, 37]
0.058481827 0.07141295 -0.08091777 0.034650434 -0.42090595 -0.1727948 0.047923926 -0.066385455
0.0919455 0.09254326 0.20714974 -0.2581083 0.014529362 0.104552835 -0.27708775 -0.07828754
-0.33791396 -0.036187902 0.25389886 -0.15766281 -0.037132822 -0.43880805 0.21946174 0.04571285
-0.14902881 -0.13306074 0.008820744 -0.38845715 0.11001235 -0.05637986 -0.20156908 0.17419066
-0.05683706 0.21168123 0.528713 0.08247265 0.023296488 0.008737879 -0.2973326 0.21202873
-0.010849296 -0.23176321 0.2922276 -0.22054976 -0.11058237 -0.6610651 -0.7468755 0.13146332
-0.015626842 -0.3285655 0.12060234 -0.1464024 0.17508438 -0.5904404 -0.098211624 -0.097339675
-0.6317035 -0.06793277 0.06881538 -0.278517 0.10624793 0.1289604 0.21166642 0.10931173
-0.037222657 0.05949919 -0.11826642 -0.00888966 -0.355711 0.19917437 0.09732485 0.292706
0.08561771 -0.09019003 0.11635343 0.05775766 -0.03397793 -0.053790268 0.086331286 -0.5211628
0.06506633 0.16116473 0.028038 -0.54552984 0.14128883 -0.60222334 -0.026347127 -0.03997366
-0.39214113 -0.13586392 -0.1259059 0.1871675 -0.015216017 0.11399567 0.042884093 -0.21189414
-0.17454095 -0.52417606 -0.23260614 -0.06622647 -0.8111476 0.25970173 -0.32775584 0.18848303
-0.76565015 -0.20357832 0.38139173 -0.39923933 -0.9339027 -0.036841165 0.019464176 0.10344138
-0.018304702 0.26039007 -0.21722546 -0.46582785 -0.33666974 0.24106106 0.11091664 -0.26889467
0.20325238 -0.22245081 0.21601887 -0.09757589 -0.097002596 -0.43033305 0.27576205 -0.025687734
0.011100229 0.0017841478 -0.48315728 -0.62574875 0.157498 -0.061125085 0.21211404 -0.061717182
0.1825653 0.23521689 0.06635826 -0.4913378 0.1414276 -0.1751948 -0.34091157 0.17037344
-0.25212356 -0.4273965 0.0011195127 -0.018282237 0.012414873 0.058446877 0.06522601 -0.012750258
-0.0689615 0.38875797 -0.45813128 -0.51347685 -0.53762114 -2.1027982 0.12348238 0.025323104
0.07185861 0.04724864 0.001973648 0.07537789 0.053445265 0.06970662 0.16073681 0.04905789
-0.116181694 -0.047842022 -0.020299781 -0.030711643 0.009050815 0.07266826 0.09358564 0.15812364
0.20773818 0.13843124 0.08804507 0.1210304 0.06719319 0.1289151 0.022814875 -0.005304662
0.008662628 0.04202244 -0.117563464 -0.107994124 0.059007704 0.14824536 -0.021507902 0.170549
0.1922013 -0.2641317 -0.6264846 0.43828163 -0.06354157 -0.15986817 -0.10487169 -0.8827556
-0.04320378 -0.020652227 0.19826189 -0.24984753 -0.0046651987 -0.06075234 0.08578273 0.015417866
-0.14540246 0.1303036 -0.18391617 0.012746978 0.12149883 0.08980771 -0.38315648 0.10825484
-0.010188726 -0.015945433 0.12829748 0.14040731 0.014339012 0.0005253133 -0.18914488 0.059769467
-0.22334462 -0.42518693 -0.07886463 0.26686925 -0.23957968 0.18068317 -0.20096445 -0.4470723
-0.017778248 0.026138976 0.10014774 -0.45390853 -0.03348384 -0.02082033 0.16134843 -0.031023478
-0.08691686 -0.32808638 0.11347778 0.31885132 -0.28685164 -0.14543854 -0.35594854 -0.03050367
0.09169259 0.13910155 -0.26156628 -0.8550252 -0.15904075 -0.2018441 -0.12890482 0.34954265
00000000: a48a 6f3d f440 923d 37b8 a5bd 9ded 0d3d
00000010: fc80 d7be 1ff1 30be e14b 443d 19f5 87bd
00000020: ec4d bc3d 5287 bd3d 101f 543e c526 84be
00000030: 900c 6e3c cc1f d63d 72de 8dbe 3855 a0bd
00000040: 0f03 adbe c439 14bd 08ff 813e 5c72 21be
00000050: 9618 18bd 73ab e0be 94ba 603e 663d 3b3d
00000060: 029b 18be 1341 08be e284 103c dbe3 c6be
00000070: 284e e13d 91ee 66bd 2068 4ebe 095f 323e
00000080: facd 68bd f7c2 583e bc59 073f 6ce7 a83d
00000090: 47d8 be3c 5229 0f3c fb3b 98be 0f1e 593e
000000a0: 3fc1 31bc 5653 6dbe db9e 953e ccd7 61be
000000b0: 0279 e2bd 903b 29bf 3c33 3fbf 529e 063e
000000c0: dd03 80bc bd39 a8be 5cfe f63d 83ea 15be
000000d0: 5249 333e 1a27 17bf 2d23 c9bd 065a c7bd
000000e0: 52b7 21bf 5620 8bbd 14ef 8c3d c899 8ebe
000000f0: 8498 d93d 320e 043e 15bf 583e d4de df3d
00000100: c976 18bd 6cb5 733d aa35 f2bd f0a5 11bc
00000110: c11f b6be 5ef4 4b3e 4052 c73d 90dd 953e
00000120: 5758 af3d 8db5 b8bd b54a ee3d 4c93 6c3d
00000130: 712c 0bbd 2f53 5cbd 75ce b03d ed6a 05bf
00000140: 7f41 853d 5e08 253e f3af e53c d8a7 0bbf
00000150: 05ae 103e 4f2b 1abf eed5 d7bc 6cbb 23bd
00000160: b9c6 c8be e91f 0bbe 7aed 00be d6a8 3f3e
00000170: 9a4c 79bc 9076 e93d 3ba7 2f3d c7fa 58be
00000180: ddba 32be 6730 06bf 4e30 6ebe bea1 87bd
00000190: 5ea7 4fbf a0f7 843e 9dcf a7be b201 413e
000001a0: a601 44bf d676 50be c745 c33e 1969 ccbe
000001b0: 3f14 6fbf c3e6 16bd 5673 9f3c 13d9 d33d
000001c0: bef3 95bc d951 853e 5a70 5ebe fd80 eebe
000001d0: fa5f acbe b6d8 763e 4328 e33d 90ac 89be
000001e0: 6421 503e 25ca 63be 0d34 5d3e ded5 c7bd
000001f0: 4ca9 c6bd 9d54 dcbe af30 8d3e 156f d2bc
00000200: bcdd 353c 11da e93a 6460 f7be 1231 20bf
00000210: 2847 213e 4c5e 7abd 6c34 593e 28cb 7cbd
00000220: 66f2 3a3e b2dc 703e d7e6 873d a190 fbbe
00000230: 66d2 103e 4466 33be f68b aebe 6076 2e3e
00000240: 5716 81be b7d3 dabe 9dbc 923a a1c4 95bc
00000250: c067 4b3c fe65 6f3d 3795 853d 75e6 50bc
00000260: b03b 8dbd 490b c73e 2f90 eabe 3873 03bf
00000270: 8aa1 09bf 3f94 06c0 54e4 fc3d 6672 cf3c
00000280: 9b2a 933d ca87 413d 5258 013b b95f 9a3d
00000290: 6ce9 5a3d 58c2 8e3d 3198 243e edf0 483d
000002a0: abf0 edbd fff5 43bd ba4b a6bc fc96 fbbc
000002b0: df49 143c 19d3 943d d4a9 bf3d 2aeb 213e
000002c0: 51b9 543e ebc0 0d3e f950 b43d c9de f73d
000002d0: 959c 893d 5202 043e 43e6 ba3c bbd2 adbb
000002e0: b2ed 0d3c b91f 2c3d 1dc5 f0bd 062c ddbd
000002f0: 10b2 713d a2cd 173e 5731 b0bc 66a4 2e3e
00000300: 6bd0 443e 453c 87be 4b61 20bf 7366 e03e
00000310: 1522 82bd 7bb4 23be f8c6 d6bd 45fc 61bf
00000320: 72f6 30bd dc2e a9bc 2a05 4b3e 08d8 7fbe
00000330: 86de 98bb 72d7 78bd dbae af3d 389b 7c3c
00000340: 62e4 14be 4f6e 053e 8554 3cbe b3d8 503c
00000350: 61d4 f83d 1bed b73d 162d c4be b7b4 dd3d
00000360: 9dee 26bc ff9f 82bc 6a60 033e efc6 0f3e
00000370: 2dee 6a3c 2eb5 093a 32af 41be d4d0 743d
00000380: 74b4 64be 1ab2 d9be c783 a1bd 16a3 883e
00000390: 6054 75be 0205 393e a0c9 4dbe a9e6 e4be
000003a0: b0a3 91bc 6821 d63c 421a cd3d b366 e8be
000003b0: 5a26 09bd 668f aabc 8638 253e f324 febc
000003c0: 7701 b2bd f0fa a7be 0a67 e83d 7b40 a33e
000003d0: 38de 92be d7ed 14be e33e b6be d5e2 f9bc
000003e0: 53c9 bb3d a370 0e3e 04ec 85be eee2 5abf
000003f0: 94db 22be 38b0 4ebe a0ff 03be 41f7 b23e

fc1.bias f4 [64]
-0.1671993 -0.14603935 -0.07666587 -0.13299109 -0.07464198 0.10208605 0.03371149 0.08621151
-0.13068 0.23588303 0.005183332 0.086170435 -0.08648569 -0.14692114 -0.28800792 -0.15860695
-0.079166576 0.09882816 -0.18073581 -0.17533252 -0.019750169 0.014066065 0.0073529 0.039053246
-0.0060237274 0.12473328 -0.07552826 -0.17553493 0.017082363 0.12868136 -0.10597722 -0.13674636
-0.0680848 -0.035265416 -0.08119402 0.05438556 0.1056615 0.04542414 0.14090516 -0.07778197
-0.13943559 -0.049538713 -0.12243325 -0.09219592 0.14184959 -0.12528159 -0.029723737 -0.15885326
0.15433373 0.018306175 0.056449864 0.018940447 0.046076678 -0.10487773 0.11459375 0.08056853
-0.26092738 -0.16626993 -0.10384365 -0.05682891 0.08971003 0.006343162 -0.087231696 0.024593374
00000000: 4b36 2bbe 578b 15be ff02 9dbd d12e 08be
00000010: e5dd 98bd 7e12 d13d 0f15 0a3d a98f b03d
00000020: fad0 05be 528b 713e f1d8 a93b 207a b03d
00000030: 691f b1bd 7f72 16be c675 93be dc69 22be
00000040: 1622 a2bd 6b66 ca3d cf12 39be 5e8a 33be
00000050: 1bcb a1bc 5a75 663c 99f0 f03b 4cf6 1f3d
00000060: b062 c5bb 2974 ff3d 8fae 9abd 6ebf 33be
00000070: 50f0 8b3c 0cc5 033e 960a d9bd 3d07 0cbe
00000080: 0b70 8bbd 7872 10bd 0d49 a6bd 65c3 5e3d
00000090: 0e65 d83d aa0e 3a3d 7149 103e 274c 9fbd
000000a0: 34c8 0ebe 1be9 4abd 49be fabd 37d1 bcbd
000000b0: 0541 113e d149 00be 327f f3bc 6eaa 22be
000000c0: a909 1e3e d5f6 953c f937 673d ff28 9b3c
000000d0: e6ba 3c3d 23ca d6bd 21b0 ea3d 1d01 a53d
000000e0: 4698 85be aa42 2abe fbab d4bd 6ec5 68bd
000000f0: e4b9 b73d 4dda cf3b 88a6 b2bd 0b78 c93c

fc2.weight f4 [128, 64]
-0.12626155 -0.038930546 0.07665287 -0.14311145 -0.020081596 -0.34365785 0.02171901 -0.21421932
-0.53610414 0.085845225 -0.18111569 -0.34836003 -0.017266212 0.16283116 -0.2451644 0.016586896
-0.25664508 0.06590177 -0.045124628 -0.05394148 0.5686842 -0.2148982 -0.40391526 0.18733902
-0.44024637 -0.43824437 -0.061766554 -0.22787881 0.1336829 -0.45604557 -0.3089598 -0.13157293
-0.06367968 0.008726713 -0.5115402 0.2775814 -0.057088803 -0.121488385 -0.134707 -0.0031000108
0.1158262 -0.41898105 -0.51311696 -0.12594545 -0.7012008 0.049145535 -0.4270933 -0.22817698
-0.12479062 -0.43485177 -0.003552122 0.20256086 -0.054076634 -0.048880164 -0.2917474 0.06406446
-0.12620878 0.2774492 -0.5657115 0.059439696 0.5369789 -0.43289793 -0.04331344 0.40126458
-0.009427167 0.081842676 0.13750337 -0.18348357 0.20479345 -0.05999418 0.00391538 0.0057289614
-0.18501253 0.2231308 0.0059522386 0.06618296 -0.08571516 0.051898155 0.07000214 0.067006476
0.22456998 -0.06363863 -0.11485282 -0.16293427 0.108001955 0.05720369 -0.1439961 0.14921969
0.035475843 -0.2199144 0.012258057 0.2686628 -0.17678033 -0.26932505 -0.15355735 0.20124096
0.07505841 0.03159521 0.17138162 0.10278839 0.07590268 -0.15206584 0.054782692 0.048590455
-0.003483331 0.23391567 0.04692601 -0.027062584 -0.033156004 0.023387222 -0.011161208 -0.07644474
-0.12547882 -0.122460894 0.042982433 -0.20126286 0.17995855 -0.34537464 -0.32850757 -0.1562532
0.16253357 0.0466725 -0.16771698 -0.14323904 -0.11634265 -0.030583378 -0.44168168 0.22739144
0.09357627 -0.062041104 -0.116209105 0.10475314 -0.1459279 0.031918865 0.08095722 -0.18188344
-0.11208351 -0.24055156 -0.16706342 -0.0369775 -0.060677152 -0.061907414 -0.14980276 0.048336525
-0.034007523 0.045935936 -0.14406736 0.041883364 0.031167047 0.12404599 -0.013889688 0.09187169
0.07730524 -0.08395721 0.016407372 0.10639113 -0.06334893 0.21539618 -0.15184139 0.07317798
-0.15937021 -0.33423465 -0.17432122 0.11841777 0.105499074 -0.100019224 0.09194425 0.021089178
-0.027944077 -0.072971016 0.15305565 -0.05405247 -0.119473726 0.006465811 0.062521145 -0.2645692
-0.0962345 -0.05848849 -0.0968782 -0.18356729 -0.06261808 -0.040223416 0.16683725 -0.043496784
-0.23038828 0.09130509 0.12387347 0.011037148 -0.0008549609 -0.19725578 0.11703476 0.12920026
0.018884711 -0.6426723 0.11461842 -0.11523614 -0.7450922 -0.29290184 -0.6300093 0.0686312
-0.14901355 0.09329232 0.095148206 -0.114730574 -0.12656185 -0.09378115 -0.3358425 -0.2669223
0.09697489 -0.039686657 -0.24728347 -0.07311021 -0.22217053 0.06652933 -0.03338575 -0.118325904
-0.12566152 -0.29939646 -0.23239732 0.26368463 0.27208865 -0.029037137 -0.033607755 0.239708
0.24258806 -0.052553702 -0.19587736 0.1539283 0.048089527 0.13390456 -0.049420323 0.052260283
-0.15534697 0.3100706 0.08949773 -0.05697501 -0.11766294 0.14003162 0.18517648 0.093871266
-0.031983312 -0.04236293 -0.004740554 -0.3945933 -0.28745243 -0.05828845 -0.1823877 -0.13311572
0.07400301 0.23890014 0.33107114 -0.013936625 0.075234905 0.19510442 0.24580327 -0.06908318
00000000: b54a 01be a375 1fbd 2efc 9c3d cf8b 12be
00000010: 2982 a4bc ecf3 afbe 11ec b13c 4f5c 5bbe
00000020: 1f3e 09bf 9fcf af3d 6476 39be 3f5c b2be
00000030: df71 8dbc 36bd 263e 600c 7bbe 3ee1 873c
00000040: fc66 83be 82f7 863d 9ad4 38bd bef1 5cbd
00000050: 4a95 113f 460e 5cbe fbcd cebe cdd5 3f3e
00000060: f967 e1be 9161 e0be edfe 7cbd 1059 69be
00000070: 2ce4 083e ce7e e9be fb2f 9ebe 0ebb 06be
00000080: 7e6a 82bd 7dfa 0e3c 4cf4 02bf 261f 8e3e
00000090: f3d5 69bd e7ce f8bd a2f0 09be 8d29 4bbb
000000a0: 4936 ed3d af84 d6be a25b 03bf d8f7 00be
000000b0: e581 33bf d44c 493d f9ab dabe 3aa7 69be
000000c0: 3992 ffbd e4a4 debe b8ca 68bb 1d6c 4f3e
000000d0: 767f 5dbd 9136 48bd ea5f 95be 3a34 833d
000000e0: e03c 01be d20d 8e3e 78d2 10bf 0a77 733d
000000f0: 7377 093f cca4 ddbe 6f69 31bd 8d72 cd3e
00000100: 6774 1abc 229d a73d afcd 0c3e 1ee3 3bbe
00000110: 60b5 513e 75bc 75bd 974c 803b 03ba bb3b
00000120: ed73 3dbe 677c 643e ff0a c33b ef8a 873d
00000130: 6e8b afbd 2993 543d 485d 8f3d b13a 893d
00000140: acf5 653e f854 82bd f537 ebbd 3ed8 26be
00000150: 2130 dd3d 6b4e 6a3d b773 13be 0ccd 183e
00000160: 1e4f 113d 3e31 61be 04d6 483c 2c8e 893e
00000170: e705 35be f9e4 89be 233e 1dbe 1c12 4e3e
00000180: 39b8 993d fb69 013d aa7e 2f3e b882 d23d
00000190: dd72 9b3d 26b7 1bbe d163 603d c906 473d
000001a0: 9948 64bb 9787 6f3e 7d35 403d 5ab2 ddbc
000001b0: 97ce 07bd 8f96 bf3c 80dd 36bc 0f8f 9cbd
000001c0: 857d 00be c7cc fabd 590e 303d da17 4ebe
000001d0: 0e47 383e f2d4 b0be 2532 a8be d700 20be
000001e0: 336f 263e aa2b 3f3d 00be 2bbe 41ad 12be
000001f0: 0e45 eebd fe89 fabc 1a24 e2be 4dd9 683e
00000200: eaa4 bf3d d01e 7ebd 0aff edbd d088 d63d
00000210: 206e 15be 5bbd 023d e6cc a53d a73f 3abe
00000220: 0a8c e5bd 2653 76be ac12 2bbe b875 17bd
00000230: 9b88 78bd a192 7dbd e565 19be 85fc 453d
00000240: 794b 0bbd 5227 3c3d 6586 13be e48d 2b3d
00000250: 0952 ff3c d30b fe3d 9391 63bc 3927 bc3d
00000260: 3652 9e3d c2f1 abbd c168 863c 98e3 d93d
00000270: 15bd 81bd d190 5c3e 4f7c 1bbe 56de 953d
00000280: f231 23be ce20 abbe 4381 32be 0485 f23d
00000290: e60f d83d e1d6 ccbd 444d bc3d 36c3 ac3c
000002a0: faea e4bc d471 95bd 9fba 1c3e 1f66 5dbd
000002b0: a4ae f4bd 27df d33b 160b 803d 9d75 87be
000002c0: 9816 c5bd a091 6fbd 1468 c6bd 10f9 3bbe
000002d0: e83d 80bd 4fc1 24bd 62d7 2a3e af29 32bd
000002e0: e8ea 6bbe 2afe ba3d 60b1 fd3d 27d5 343c
000002f0: 741f 60ba 6bfd 49be ecaf ef3d 134d 043e
00000300: 1cb4 9a3c 2c86 24bf 10bd ea3d ed00 ecbd
00000310: 5dbe 3ebf 3bf7 95be 4a48 21bf 848e 8c3d
00000320: 0297 18be 0b10 bf3d 10dd c23d ddf7 eabd
00000330: 6e99 01be 5510 c0bd 8cf3 abbe 0aaa 88be
00000340: c59a c63d 7a8e 22bd e137 7dbe ceba 95bd
00000350: ac80 63be 8840 883d 7fbf 08bd da54 f2bd
00000360: 6aad 00be 7e4a 99be 90f9 6dbe ac01 873e
00000370: 344f 8b3e 4adf edbc 49a8 09bd 0476 753e
00000380: 0169 783e 8d42 57bd 1394 48be 619f 1d3e
00000390: 86f9 443d 471e 093e f76c 4abd e10e 563d
000003a0: 4713 1fbe 93c1 9e3e 964a b73d a15e 69bd
000003b0: 44f9 f0bd 7364 0f3e e79e 3d3e 943f c03d
000003c0: ef00 03bd c084 2dbd a656 9bbb 2208 cabe
000003d0: f72c 93be dfbf 6ebd d7c3 3abe 7d4f 08be
000003e0: e48e 973d 3da2 743e 2882 a93e 7156 64bc
000003f0: c214 9a3d 74c9 473e dab3 7b3e 7b7b 8dbd

fc2.bias f4 [128]
-0.19564386 0.28378105 0.2888073 0.12755014 -0.038885903 -0.16401176 -0.069831975 0.06257375
-0.0974828 -0.13291582 -0.08080621 -0.034610454 -0.115613334 -0.22006011 -0.01943186 0.43835124
0.42975068 -0.089824535 0.45094234 -0.044436786 -0.21779911 0.0037485473 -0.10035859 -0.09691522
0.28273982 -0.19816166 -0.013927422 -0.040484164 0.25721386 -0.13440733 -0.06256028 0.0021800993
-0.133232 -0.04411085 -0.23317221 -0.10571007 -0.25245672 0.46224412 0.45022815 -0.06453562
-0.27456394 -0.012302304 -0.017666878 -0.13710584 0.46923152 -0.1139288 -0.033031113 0.3379269
-0.15800978 -0.061560493 0.10933136 -0.16718291 0.22006138 0.38470024 0.15981862 0.24270937
-0.12546864 -0.021631269 0.46115988 -0.041364387 -0.29973215 -0.12858132 -0.26656616 0.051715128
-0.19558266 0.28184342 -0.1591802 -0.2352332 -0.111173265 0.25524053 -0.08949528 -0.1369418
0.097729206 -0.25431937 0.2232016 0.1202637 -0.14648409 0.018978665 0.050946813 -0.07936148
0.027790865 0.11294542 -0.030542307 -0.24753997 -0.1984431 0.4694959 0.09836955 0.11864094
-0.0266346 -0.07433039 -0.098708294 0.30543488 0.046035007 -0.06058781 0.14029807 0.2041386
-0.09758055 -0.11250529 0.005620907 -0.037156653 0.29550484 0.1206813 0.038053524 0.008169046
0.48904154 0.3479753 0.07388689 -0.062219325 -0.08363365 0.07938793 0.077918455 -0.123112075
-0.036419794 -0.016020458 -0.1085663 -0.1476534 0.013357525 -0.18689975 -0.1027125 0.12982197
-0.1292761 -0.2344791 -0.07566113 0.010557502 -0.14949912 -0.14922093 -0.15802188 -0.22309595
00000000: dd56 48be c04b 913e 8dde 933e 819c 023e
00000010: d346 1fbd b3f2 27be 1104 8fbd ab26 803d
00000020: 10a5 c7bd 161b 08be ba7d a5bd b1c3 0dbd
00000030: afc6 ecbd 7057 61be 902f 9fbc 936f e03e
00000040: 4808 dc3e edf5 b7bd eae1 e63e 5903 36bd
00000050: bb06 5fbe 30aa 753b ce88 cdbd 7d7b c6bd
00000060: 46c3 903e e4ea 4abe d82f 64bc b9d2 25bd
00000070: 89b1 833e 13a2 09be 9b1f 80bd ffdf 0e3b
00000080: f86d 08be 94ad 34bd b2c4 6ebe 857e d8bd
00000090: 0242 81be 43ab ec3e 4e84 e63e 402b 84bd
000000a0: a593 8cbe 9a8f 49bc 21ba 90bc 7965 0cbe
000000b0: 1d3f f03e 8153 e9bd a24b 07bd c104 ad3e
000000c0: 51cd 21be db26 7cbd 1fe9 df3d ff31 2bbe
000000d0: c557 613e 6ef7 c43e 7ea7 233e ce88 783e
000000e0: da7a 00be 0f34 b1bc 261d ec3e b46d 29bd
000000f0: 7e76 99be d2aa 03be 5c7b 88be 3ed3 533d
00000100: d246 48be c84d 903e 2200 23be f9e0 70be
00000110: cfae e3bd e3ae 823e 4d49 b7bd 793a 0cbe
00000120: 4026 c83d 2636 82be f68e 643e d14c f63d
00000130: edff 15be 2579 9b3c 9bad 503d 4688 a2bd
00000140: aba9 e33c ee4f e73d dc33 fabc 1e7b 7dbe
00000150: ab34 4bbe c461 f03e fa75 c93d 05fa f23d
00000160: ce30 dabc 883a 98bd 9327 cabd f661 9c3e
00000170: 348f 3c3d ec2a 78bd 4caa 0f3e b609 513e
00000180: 50d8 c7bd 2c69 e6bd 962f b83b 9331 18bd
00000190: 694c 973e c227 f73d 03de 1b3d 76d7 053c
000001a0: a763 fa3e d229 b23e 0352 973d b1d9 7ebd
000001b0: 1e48 abbd 2496 a23d b693 9f3d 2f22 fcbd
000001c0: ec2c 15bd 563d 83bc 0258 debd 7432 17be
000001d0: 85d9 5a3c a662 3fbe ee5a d2bd 0df0 043e
000001e0: f460 04be 4a1b 70be 39f4 9abd 5ff9 2c3c
000001f0: 4c16 19be 5fcd 18be 7dd0 21be 4473 64be

fc3.weight f4 [4, 128]
-0.18299338 0.068214536 0.00067646016 0.067687355 0.015859688 0.10364664 -0.2053341 -0.0051458427
0.18751772 -0.048052225 0.52853537 0.15162587 0.24891368 0.31109232 0.2190749 0.13142402
0.15352568 -0.15109879 0.10667685 -0.09745346 0.002971603 0.103126265 -0.21837725 -0.10417358
0.1660447 -0.79300296 0.007987875 0.07186971 0.1960219 0.17387992 -0.24041332 0.32413062
-0.37357736 0.032620616 -0.04242126 -0.025395764 0.01835621 0.15594448 0.12405457 -0.20076184
-0.31124192 0.17970751 -0.05666882 0.1569355 0.13036102 0.20923866 0.08713163 0.071428634
0.14675501 0.1692647 0.17185341 -0.2885043 0.023472931 0.14000009 -0.14389823 0.04372751
-0.17286758 0.10999658 0.10320467 0.13935974 -0.0755241 0.55028 -0.3900682 0.13337691
0.36336806 0.05706705 -0.08611999 0.25098783 0.41859436 0.041612435 0.17524415 0.028598383
0.108694084 -0.22998866 0.2555977 0.10812151 -0.33848006 0.1683194 0.1240906 -0.27580658
-0.010172625 0.17165196 -0.02999788 -0.20766485 -0.029094037 0.15061246 0.045942426 0.13984269
0.27828434 -0.03583903 -0.042494886 0.13742565 0.15608926 0.54166144 0.06322361 0.09134032
0.12613803 -0.44820487 0.09723812 0.0809752 0.08965199 0.1052474 0.24481247 -0.0011409012
0.17553556 0.057541892 0.1725178 0.10895883 0.3327472 -0.15072468 -0.06583441 -0.2674263
-0.31601056 -0.02381628 -0.031423997 0.14200073 -0.14674392 -0.16497593 -0.32752818 -0.024390262
-0.20379017 -0.24139729 0.013814851 0.36972845 -0.16547555 -0.24936038 -0.02978179 -0.04379082
-0.5854368 0.12547179 0.08059286 0.035697673 0.25306723 -0.04718345 -0.25005922 -0.04917344
-0.08501592 -0.026066404 0.52375627 -0.2171899 0.043786094 0.2293163 0.13251525 0.1229179
0.14632608 0.07374783 0.1188816 -0.08495143 0.25923216 -0.021842547 -0.13602415 -0.15538403
0.121545285 -0.14380011 0.10077545 0.17543522 0.08807884 -0.05046987 -0.14172597 -0.18489328
-0.091575816 0.18210357 -0.12739354 0.0031118765 0.42487517 0.16204125 0.19653472 0.04820278
0.27376664 0.1510983 -0.19192865 -0.014221187 0.12121237 0.090855435 0.11788411 0.15582024
0.11306165 0.3799052 0.07686726 -0.050238043 -0.0027516931 0.063056774 0.0637356 0.07304839
-0.022301685 0.11995188 0.14667352 0.35486698 -0.17322072 0.36522427 -0.26151752 0.10841079
0.28887248 -0.074016966 0.048847817 0.07285216 0.31847245 -0.039624173 0.26124853 0.08446932
-0.0007709488 0.14763416 0.18605553 -0.0105733005 -0.12203731 0.24278237 0.07128502 -0.15225826
0.15657681 -0.001560432 0.1276975 -0.03135352 0.005578455 0.11423907 0.008958853 0.05823467
0.09148081 0.029733406 -0.46296525 0.107454315 -0.11346679 0.27675784 0.077591985 0.119873576
0.017610818 -0.082890704 0.07908493 0.046633597 0.14637598 -0.10894037 0.182087 0.3954249
0.11573038 0.077407785 0.19276825 0.0400136 0.46621278 -0.08481609 -0.20879214 0.07892516
-0.4855218 -0.04659618 0.20528893 0.13155891 0.075056 -0.0409791 -0.036023196 0.104609825
-0.28846455 -0.0021939597 0.06720578 0.3074243 -0.03384581 -0.13019703 -0.07167178 -0.06769682
00000000: 9e62 3bbe 10b4 8b3d 7954 313a ab9f 8a3d
00000010: 2dec 813c b144 d43d 1a43 52be 759e a8bb
00000020: a504 403e 69d2 44bd 184e 073f d043 1b3e
00000030: 3ae3 7e3e 7e47 9f3e 2c55 603e 0594 063e
00000040: d635 1d3e a4b9 1abe 6479 da3d ae95 c7bd
00000050: 3abf 423b dd33 d33d 499e 5fbe f558 d5bd
00000060: 9f07 2a3e 3e02 4bbf 93df 023c 6d30 933d
00000070: f7b9 483e 940d 323e e92e 76be 73f4 a53e
00000080: 8845 bfbe 329d 053d eac1 2dbd c70a d0bc
00000090: c35f 963c e9af 1f3e 5310 fe3d 8394 4dbe
000000a0: 1a5b 9fbe 3f05 383e 911d 68bd b3b3 203e
000000b0: 5c7d 053e a942 563e 1172 b23d 2d49 923d
000000c0: f246 163e ba53 2d3e 57fa 2f3e d6b6 93be
000000d0: 4e4a c03c 2f5c 0f3e 0f5a 13be 9e1b 333d
000000e0: 3304 31be e345 e13d f85c d33d 52b4 0e3e
000000f0: 61ac 9abd 26df 0c3f 05b7 c7be f593 083e
00000100: 610b ba3e 24bf 693d ad5f b0bd 7a81 803e
00000110: 0052 d63e cd71 2a3d 3473 333e 2847 ea3c
00000120: 019b de3d 2682 6bbe b4dd 823e cf6e dd3d
00000130: 424d adbe ec5b 2c3e 3623 fe3d 8536 8dbe
00000140: 15ab 26bc 88c5 2f3e 1dbe f5bc 18a6 54be
00000150: 9e56 eebc 273a 1a3e 202e 3c3d ec32 0f3e
00000160: 497b 8e3e f2cb 12bd 1e0f 2ebd 4fb9 0c3e
00000170: ddd5 1f3e 53aa 0a3f 617b 813d a210 bb3d
00000180: 542a 013e 1c7b e5be c824 c73d 53d6 a53d
00000190: 769b b73d f38b d73d 1fb0 7a3e 4b8a 95ba
000001a0: 98bf 333e 0cb1 6b3d 82a8 303e cf25 df3d
000001b0: d75d aa3e 9257 1abe 31d4 86bd 1aec 88be
000001c0: 23cc a1be 5c1a c3bc 73b6 00bd a468 113e
000001d0: 0a44 16be 73ef 28be c6b1 a7be 16ce c7bc
000001e0: 5fae 50be da30 77be af57 623c 0c4d bd3e
000001f0: 6c72 29be 5458 7fbe f1f8 f3bc 015e 33bd
00000200: 30df 15bf ad7b 003e df0d a53d b937 123d
00000210: 0792 813e 6f43 41bd c307 80be 176a 49bd
00000220: d41c aebd 3689 d5bc e414 063f 0767 5ebe
00000230: 0c59 333d e4d1 6a3e 14b2 073e 61bc fb3d
00000240: 81d6 153e 1a09 973d 3278 f33d 04fb adbd
00000250: 14ba 843e 24ef b2bc ea49 0bbe fe1c 1fbe
00000260: bcec f83d 5640 13be 5c63 ce3d 4aa5 333e
00000270: ae62 b43d 7fb9 4ebd 9d20 11be aa54 3dbe
00000280: 1a8c bbbd 5c79 3a3e 7473 02be a0f0 4b3b
00000290: 3d89 d93e 24ee 253e 6640 493e 4770 453d
000002a0: 242b 8c3e 83b9 1a3e f288 44be fbff 68bc
000002b0: 313e f83d 6a12 ba3d 396d f13d 578f 1f3e
000002c0: de8c e73d ef82 c23e 956c 9d3d 68c6 4dbd
000002d0: c055 34bb e923 813d cf87 823d 659a 953d
000002e0: 06b2 b6bc 55a9 f53d 9531 163e 20b1 b53e
000002f0: c660 31be adfe ba3e a0e5 85be 7a06 de3d
00000300: 18e7 933e 3596 97bd a614 483d 8333 953d
00000310: d20e a33e f54c 22bd 5ec2 853e 40fe ac3d
00000320: 8019 4aba 692d 173e 5785 3e3e a33b 2dbc
00000330: b2ee f9bd f19b 783e e1fd 913d 97e9 1bbe
00000340: ac55 203e 6987 ccba 22c3 023e 8c6c 00bd
00000350: 79cb b63b 2cf6 e93d 27c8 123c 7a87 6e3d
00000360: 4a5a bb3d 7993 f33c c809 edbe 0211 dc3d
00000370: 4761 e8bd 34b3 8d3e 8ce8 9e3d 4780 f53d
00000380: 9044 903c 9ac2 a9bd 48f7 a13d df02 3f3d
00000390: 96e3 153e 211c dfbd 0475 3a3e 2275 ca3e
000003a0: 0d04 ed3d f987 9e3d 0a65 453e 4de5 233d
000003b0: 71b3 ee3e 0fb4 adbd 9bcd 55be 84a3 a13d
000003c0: 5096 f8be a3db 3ebd 4337 523e 61b7 063e
000003d0: f6b6 993d b3d9 27bd 0f8d 13bd ad3d d63d
000003e0: a0b1 93be 89c8 0fbb 2fa3 893d b866 9d3e
000003f0: e7a1 0abd 5f52 05be a7c8 92bd a1a4 8abd

fc3.bias f4 [4]
0.40186465 0.3382379 0.33955398 0.37943983
00000000: 34c1 cd3e 852d ad3e 05da ad3e f045 c23e
